node {
  name: "global_step/Initializer/zeros"
  op: "Const"
  attr {
    key: "_class"
    value {
      list {
        s: "loc:@global_step"
      }
    }
  }
  attr {
    key: "_output_shapes"
    value {
      list {
        shape {
        }
      }
    }
  }
  attr {
    key: "dtype"
    value {
      type: DT_INT64
    }
  }
  attr {
    key: "value"
    value {
      tensor {
        dtype: DT_INT64
        tensor_shape {
        }
        int64_val: 0
      }
    }
  }
}
node {
  name: "global_step"
  op: "VariableV2"
  attr {
    key: "_class"
    value {
      list {
        s: "loc:@global_step"
      }
    }
  }
  attr {
    key: "_output_shapes"
    value {
      list {
        shape {
        }
      }
    }
  }
  attr {
    key: "container"
    value {
      s: ""
    }
  }
  attr {
    key: "dtype"
    value {
      type: DT_INT64
    }
  }
  attr {
    key: "shape"
    value {
      shape {
      }
    }
  }
  attr {
    key: "shared_name"
    value {
      s: ""
    }
  }
}
node {
  name: "global_step/Assign"
  op: "Assign"
  input: "global_step"
  input: "global_step/Initializer/zeros"
  attr {
    key: "T"
    value {
      type: DT_INT64
    }
  }
  attr {
    key: "_class"
    value {
      list {
        s: "loc:@global_step"
      }
    }
  }
  attr {
    key: "_output_shapes"
    value {
      list {
        shape {
        }
      }
    }
  }
  attr {
    key: "use_locking"
    value {
      b: true
    }
  }
  attr {
    key: "validate_shape"
    value {
      b: true
    }
  }
}
node {
  name: "global_step/read"
  op: "Identity"
  input: "global_step"
  attr {
    key: "T"
    value {
      type: DT_INT64
    }
  }
  attr {
    key: "_class"
    value {
      list {
        s: "loc:@global_step"
      }
    }
  }
  attr {
    key: "_output_shapes"
    value {
      list {
        shape {
        }
      }
    }
  }
}
node {
  name: "global_step/IsVariableInitialized"
  op: "IsVariableInitialized"
  input: "global_step"
  attr {
    key: "_class"
    value {
      list {
        s: "loc:@global_step"
      }
    }
  }
  attr {
    key: "_output_shapes"
    value {
      list {
        shape {
        }
      }
    }
  }
  attr {
    key: "dtype"
    value {
      type: DT_INT64
    }
  }
}
node {
  name: "global_step/cond/Switch"
  op: "Switch"
  input: "global_step/IsVariableInitialized"
  input: "global_step/IsVariableInitialized"
  attr {
    key: "T"
    value {
      type: DT_BOOL
    }
  }
  attr {
    key: "_output_shapes"
    value {
      list {
        shape {
        }
        shape {
        }
      }
    }
  }
}
node {
  name: "global_step/cond/switch_t"
  op: "Identity"
  input: "global_step/cond/Switch:1"
  attr {
    key: "T"
    value {
      type: DT_BOOL
    }
  }
  attr {
    key: "_output_shapes"
    value {
      list {
        shape {
        }
      }
    }
  }
}
node {
  name: "global_step/cond/switch_f"
  op: "Identity"
  input: "global_step/cond/Switch"
  attr {
    key: "T"
    value {
      type: DT_BOOL
    }
  }
  attr {
    key: "_output_shapes"
    value {
      list {
        shape {
        }
      }
    }
  }
}
node {
  name: "global_step/cond/pred_id"
  op: "Identity"
  input: "global_step/IsVariableInitialized"
  attr {
    key: "T"
    value {
      type: DT_BOOL
    }
  }
  attr {
    key: "_output_shapes"
    value {
      list {
        shape {
        }
      }
    }
  }
}
node {
  name: "global_step/cond/read"
  op: "Identity"
  input: "global_step/cond/read/Switch:1"
  attr {
    key: "T"
    value {
      type: DT_INT64
    }
  }
  attr {
    key: "_output_shapes"
    value {
      list {
        shape {
        }
      }
    }
  }
}
node {
  name: "global_step/cond/read/Switch"
  op: "RefSwitch"
  input: "global_step"
  input: "global_step/cond/pred_id"
  attr {
    key: "T"
    value {
      type: DT_INT64
    }
  }
  attr {
    key: "_class"
    value {
      list {
        s: "loc:@global_step"
      }
    }
  }
  attr {
    key: "_output_shapes"
    value {
      list {
        shape {
        }
        shape {
        }
      }
    }
  }
}
node {
  name: "global_step/cond/Switch_1"
  op: "Switch"
  input: "global_step/Initializer/zeros"
  input: "global_step/cond/pred_id"
  attr {
    key: "T"
    value {
      type: DT_INT64
    }
  }
  attr {
    key: "_class"
    value {
      list {
        s: "loc:@global_step"
      }
    }
  }
  attr {
    key: "_output_shapes"
    value {
      list {
        shape {
        }
        shape {
        }
      }
    }
  }
}
node {
  name: "global_step/cond/Merge"
  op: "Merge"
  input: "global_step/cond/Switch_1"
  input: "global_step/cond/read"
  attr {
    key: "N"
    value {
      i: 2
    }
  }
  attr {
    key: "T"
    value {
      type: DT_INT64
    }
  }
  attr {
    key: "_output_shapes"
    value {
      list {
        shape {
        }
        shape {
        }
      }
    }
  }
}
node {
  name: "global_step/add/y"
  op: "Const"
  attr {
    key: "_output_shapes"
    value {
      list {
        shape {
        }
      }
    }
  }
  attr {
    key: "dtype"
    value {
      type: DT_INT64
    }
  }
  attr {
    key: "value"
    value {
      tensor {
        dtype: DT_INT64
        tensor_shape {
        }
        int64_val: 0
      }
    }
  }
}
node {
  name: "global_step/add"
  op: "Add"
  input: "global_step/cond/Merge"
  input: "global_step/add/y"
  attr {
    key: "T"
    value {
      type: DT_INT64
    }
  }
  attr {
    key: "_output_shapes"
    value {
      list {
        shape {
        }
      }
    }
  }
}
node {
  name: "enqueue_input/random_shuffle_queue"
  op: "RandomShuffleQueueV2"
  device: "/device:CPU:0"
  attr {
    key: "_output_shapes"
    value {
      list {
        shape {
        }
      }
    }
  }
  attr {
    key: "capacity"
    value {
      i: 1000
    }
  }
  attr {
    key: "component_types"
    value {
      list {
        type: DT_INT64
        type: DT_INT64
        type: DT_STRING
        type: DT_DOUBLE
        type: DT_INT64
        type: DT_INT64
        type: DT_DOUBLE
        type: DT_STRING
        type: DT_STRING
        type: DT_INT64
      }
    }
  }
  attr {
    key: "container"
    value {
      s: ""
    }
  }
  attr {
    key: "min_after_dequeue"
    value {
      i: 250
    }
  }
  attr {
    key: "seed"
    value {
      i: 0
    }
  }
  attr {
    key: "seed2"
    value {
      i: 0
    }
  }
  attr {
    key: "shapes"
    value {
      list {
        shape {
        }
        shape {
        }
        shape {
        }
        shape {
        }
        shape {
        }
        shape {
        }
        shape {
        }
        shape {
        }
        shape {
        }
        shape {
        }
      }
    }
  }
  attr {
    key: "shared_name"
    value {
      s: ""
    }
  }
}
node {
  name: "enqueue_input/Placeholder"
  op: "Placeholder"
  device: "/device:CPU:0"
  attr {
    key: "_output_shapes"
    value {
      list {
        shape {
          unknown_rank: true
        }
      }
    }
  }
  attr {
    key: "dtype"
    value {
      type: DT_INT64
    }
  }
  attr {
    key: "shape"
    value {
      shape {
        unknown_rank: true
      }
    }
  }
}
node {
  name: "enqueue_input/Placeholder_1"
  op: "Placeholder"
  device: "/device:CPU:0"
  attr {
    key: "_output_shapes"
    value {
      list {
        shape {
          unknown_rank: true
        }
      }
    }
  }
  attr {
    key: "dtype"
    value {
      type: DT_INT64
    }
  }
  attr {
    key: "shape"
    value {
      shape {
        unknown_rank: true
      }
    }
  }
}
node {
  name: "enqueue_input/Placeholder_2"
  op: "Placeholder"
  device: "/device:CPU:0"
  attr {
    key: "_output_shapes"
    value {
      list {
        shape {
          unknown_rank: true
        }
      }
    }
  }
  attr {
    key: "dtype"
    value {
      type: DT_STRING
    }
  }
  attr {
    key: "shape"
    value {
      shape {
        unknown_rank: true
      }
    }
  }
}
node {
  name: "enqueue_input/Placeholder_3"
  op: "Placeholder"
  device: "/device:CPU:0"
  attr {
    key: "_output_shapes"
    value {
      list {
        shape {
          unknown_rank: true
        }
      }
    }
  }
  attr {
    key: "dtype"
    value {
      type: DT_DOUBLE
    }
  }
  attr {
    key: "shape"
    value {
      shape {
        unknown_rank: true
      }
    }
  }
}
node {
  name: "enqueue_input/Placeholder_4"
  op: "Placeholder"
  device: "/device:CPU:0"
  attr {
    key: "_output_shapes"
    value {
      list {
        shape {
          unknown_rank: true
        }
      }
    }
  }
  attr {
    key: "dtype"
    value {
      type: DT_INT64
    }
  }
  attr {
    key: "shape"
    value {
      shape {
        unknown_rank: true
      }
    }
  }
}
node {
  name: "enqueue_input/Placeholder_5"
  op: "Placeholder"
  device: "/device:CPU:0"
  attr {
    key: "_output_shapes"
    value {
      list {
        shape {
          unknown_rank: true
        }
      }
    }
  }
  attr {
    key: "dtype"
    value {
      type: DT_INT64
    }
  }
  attr {
    key: "shape"
    value {
      shape {
        unknown_rank: true
      }
    }
  }
}
node {
  name: "enqueue_input/Placeholder_6"
  op: "Placeholder"
  device: "/device:CPU:0"
  attr {
    key: "_output_shapes"
    value {
      list {
        shape {
          unknown_rank: true
        }
      }
    }
  }
  attr {
    key: "dtype"
    value {
      type: DT_DOUBLE
    }
  }
  attr {
    key: "shape"
    value {
      shape {
        unknown_rank: true
      }
    }
  }
}
node {
  name: "enqueue_input/Placeholder_7"
  op: "Placeholder"
  device: "/device:CPU:0"
  attr {
    key: "_output_shapes"
    value {
      list {
        shape {
          unknown_rank: true
        }
      }
    }
  }
  attr {
    key: "dtype"
    value {
      type: DT_STRING
    }
  }
  attr {
    key: "shape"
    value {
      shape {
        unknown_rank: true
      }
    }
  }
}
node {
  name: "enqueue_input/Placeholder_8"
  op: "Placeholder"
  device: "/device:CPU:0"
  attr {
    key: "_output_shapes"
    value {
      list {
        shape {
          unknown_rank: true
        }
      }
    }
  }
  attr {
    key: "dtype"
    value {
      type: DT_STRING
    }
  }
  attr {
    key: "shape"
    value {
      shape {
        unknown_rank: true
      }
    }
  }
}
node {
  name: "enqueue_input/Placeholder_9"
  op: "Placeholder"
  device: "/device:CPU:0"
  attr {
    key: "_output_shapes"
    value {
      list {
        shape {
          unknown_rank: true
        }
      }
    }
  }
  attr {
    key: "dtype"
    value {
      type: DT_INT64
    }
  }
  attr {
    key: "shape"
    value {
      shape {
        unknown_rank: true
      }
    }
  }
}
node {
  name: "enqueue_input/random_shuffle_queue_EnqueueMany"
  op: "QueueEnqueueManyV2"
  input: "enqueue_input/random_shuffle_queue"
  input: "enqueue_input/Placeholder"
  input: "enqueue_input/Placeholder_1"
  input: "enqueue_input/Placeholder_2"
  input: "enqueue_input/Placeholder_3"
  input: "enqueue_input/Placeholder_4"
  input: "enqueue_input/Placeholder_5"
  input: "enqueue_input/Placeholder_6"
  input: "enqueue_input/Placeholder_7"
  input: "enqueue_input/Placeholder_8"
  input: "enqueue_input/Placeholder_9"
  device: "/device:CPU:0"
  attr {
    key: "Tcomponents"
    value {
      list {
        type: DT_INT64
        type: DT_INT64
        type: DT_STRING
        type: DT_DOUBLE
        type: DT_INT64
        type: DT_INT64
        type: DT_DOUBLE
        type: DT_STRING
        type: DT_STRING
        type: DT_INT64
      }
    }
  }
  attr {
    key: "timeout_ms"
    value {
      i: -1
    }
  }
}
node {
  name: "enqueue_input/random_shuffle_queue_Close"
  op: "QueueCloseV2"
  input: "enqueue_input/random_shuffle_queue"
  device: "/device:CPU:0"
  attr {
    key: "cancel_pending_enqueues"
    value {
      b: false
    }
  }
}
node {
  name: "enqueue_input/random_shuffle_queue_Close_1"
  op: "QueueCloseV2"
  input: "enqueue_input/random_shuffle_queue"
  device: "/device:CPU:0"
  attr {
    key: "cancel_pending_enqueues"
    value {
      b: true
    }
  }
}
node {
  name: "enqueue_input/random_shuffle_queue_Size"
  op: "QueueSizeV2"
  input: "enqueue_input/random_shuffle_queue"
  device: "/device:CPU:0"
  attr {
    key: "_output_shapes"
    value {
      list {
        shape {
        }
      }
    }
  }
}
node {
  name: "enqueue_input/sub/y"
  op: "Const"
  device: "/device:CPU:0"
  attr {
    key: "_output_shapes"
    value {
      list {
        shape {
        }
      }
    }
  }
  attr {
    key: "dtype"
    value {
      type: DT_INT32
    }
  }
  attr {
    key: "value"
    value {
      tensor {
        dtype: DT_INT32
        tensor_shape {
        }
        int_val: 250
      }
    }
  }
}
node {
  name: "enqueue_input/sub"
  op: "Sub"
  input: "enqueue_input/random_shuffle_queue_Size"
  input: "enqueue_input/sub/y"
  device: "/device:CPU:0"
  attr {
    key: "T"
    value {
      type: DT_INT32
    }
  }
  attr {
    key: "_output_shapes"
    value {
      list {
        shape {
        }
      }
    }
  }
}
node {
  name: "enqueue_input/Maximum/x"
  op: "Const"
  device: "/device:CPU:0"
  attr {
    key: "_output_shapes"
    value {
      list {
        shape {
        }
      }
    }
  }
  attr {
    key: "dtype"
    value {
      type: DT_INT32
    }
  }
  attr {
    key: "value"
    value {
      tensor {
        dtype: DT_INT32
        tensor_shape {
        }
        int_val: 0
      }
    }
  }
}
node {
  name: "enqueue_input/Maximum"
  op: "Maximum"
  input: "enqueue_input/Maximum/x"
  input: "enqueue_input/sub"
  device: "/device:CPU:0"
  attr {
    key: "T"
    value {
      type: DT_INT32
    }
  }
  attr {
    key: "_output_shapes"
    value {
      list {
        shape {
        }
      }
    }
  }
}
node {
  name: "enqueue_input/Cast"
  op: "Cast"
  input: "enqueue_input/Maximum"
  device: "/device:CPU:0"
  attr {
    key: "DstT"
    value {
      type: DT_FLOAT
    }
  }
  attr {
    key: "SrcT"
    value {
      type: DT_INT32
    }
  }
  attr {
    key: "_output_shapes"
    value {
      list {
        shape {
        }
      }
    }
  }
}
node {
  name: "enqueue_input/mul/y"
  op: "Const"
  device: "/device:CPU:0"
  attr {
    key: "_output_shapes"
    value {
      list {
        shape {
        }
      }
    }
  }
  attr {
    key: "dtype"
    value {
      type: DT_FLOAT
    }
  }
  attr {
    key: "value"
    value {
      tensor {
        dtype: DT_FLOAT
        tensor_shape {
        }
        float_val: 0.0013333333190530539
      }
    }
  }
}
node {
  name: "enqueue_input/mul"
  op: "Mul"
  input: "enqueue_input/Cast"
  input: "enqueue_input/mul/y"
  device: "/device:CPU:0"
  attr {
    key: "T"
    value {
      type: DT_FLOAT
    }
  }
  attr {
    key: "_output_shapes"
    value {
      list {
        shape {
        }
      }
    }
  }
}
node {
  name: "enqueue_input/queue/enqueue_input/random_shuffle_queuefraction_over_250_of_750_full/tags"
  op: "Const"
  device: "/device:CPU:0"
  attr {
    key: "_output_shapes"
    value {
      list {
        shape {
        }
      }
    }
  }
  attr {
    key: "dtype"
    value {
      type: DT_STRING
    }
  }
  attr {
    key: "value"
    value {
      tensor {
        dtype: DT_STRING
        tensor_shape {
        }
        string_val: "enqueue_input/queue/enqueue_input/random_shuffle_queuefraction_over_250_of_750_full"
      }
    }
  }
}
node {
  name: "enqueue_input/queue/enqueue_input/random_shuffle_queuefraction_over_250_of_750_full"
  op: "ScalarSummary"
  input: "enqueue_input/queue/enqueue_input/random_shuffle_queuefraction_over_250_of_750_full/tags"
  input: "enqueue_input/mul"
  device: "/device:CPU:0"
  attr {
    key: "T"
    value {
      type: DT_FLOAT
    }
  }
  attr {
    key: "_output_shapes"
    value {
      list {
        shape {
        }
      }
    }
  }
}
node {
  name: "random_shuffle_queue_DequeueUpTo/n"
  op: "Const"
  device: "/device:CPU:0"
  attr {
    key: "_output_shapes"
    value {
      list {
        shape {
        }
      }
    }
  }
  attr {
    key: "dtype"
    value {
      type: DT_INT32
    }
  }
  attr {
    key: "value"
    value {
      tensor {
        dtype: DT_INT32
        tensor_shape {
        }
        int_val: 128
      }
    }
  }
}
node {
  name: "random_shuffle_queue_DequeueUpTo"
  op: "QueueDequeueUpToV2"
  input: "enqueue_input/random_shuffle_queue"
  input: "random_shuffle_queue_DequeueUpTo/n"
  device: "/device:CPU:0"
  attr {
    key: "_output_shapes"
    value {
      list {
        shape {
          dim {
            size: -1
          }
        }
        shape {
          dim {
            size: -1
          }
        }
        shape {
          dim {
            size: -1
          }
        }
        shape {
          dim {
            size: -1
          }
        }
        shape {
          dim {
            size: -1
          }
        }
        shape {
          dim {
            size: -1
          }
        }
        shape {
          dim {
            size: -1
          }
        }
        shape {
          dim {
            size: -1
          }
        }
        shape {
          dim {
            size: -1
          }
        }
        shape {
          dim {
            size: -1
          }
        }
      }
    }
  }
  attr {
    key: "component_types"
    value {
      list {
        type: DT_INT64
        type: DT_INT64
        type: DT_STRING
        type: DT_DOUBLE
        type: DT_INT64
        type: DT_INT64
        type: DT_DOUBLE
        type: DT_STRING
        type: DT_STRING
        type: DT_INT64
      }
    }
  }
  attr {
    key: "timeout_ms"
    value {
      i: -1
    }
  }
}
node {
  name: "dnn/input_from_feature_columns/input_layer/Age/ExpandDims/dim"
  op: "Const"
  attr {
    key: "_output_shapes"
    value {
      list {
        shape {
        }
      }
    }
  }
  attr {
    key: "dtype"
    value {
      type: DT_INT32
    }
  }
  attr {
    key: "value"
    value {
      tensor {
        dtype: DT_INT32
        tensor_shape {
        }
        int_val: -1
      }
    }
  }
}
node {
  name: "dnn/input_from_feature_columns/input_layer/Age/ExpandDims"
  op: "ExpandDims"
  input: "random_shuffle_queue_DequeueUpTo:3"
  input: "dnn/input_from_feature_columns/input_layer/Age/ExpandDims/dim"
  attr {
    key: "T"
    value {
      type: DT_DOUBLE
    }
  }
  attr {
    key: "Tdim"
    value {
      type: DT_INT32
    }
  }
  attr {
    key: "_output_shapes"
    value {
      list {
        shape {
          dim {
            size: -1
          }
          dim {
            size: 1
          }
        }
      }
    }
  }
}
node {
  name: "dnn/input_from_feature_columns/input_layer/Age/ToFloat"
  op: "Cast"
  input: "dnn/input_from_feature_columns/input_layer/Age/ExpandDims"
  attr {
    key: "DstT"
    value {
      type: DT_FLOAT
    }
  }
  attr {
    key: "SrcT"
    value {
      type: DT_DOUBLE
    }
  }
  attr {
    key: "_output_shapes"
    value {
      list {
        shape {
          dim {
            size: -1
          }
          dim {
            size: 1
          }
        }
      }
    }
  }
}
node {
  name: "dnn/input_from_feature_columns/input_layer/Age/Shape"
  op: "Shape"
  input: "dnn/input_from_feature_columns/input_layer/Age/ToFloat"
  attr {
    key: "T"
    value {
      type: DT_FLOAT
    }
  }
  attr {
    key: "_output_shapes"
    value {
      list {
        shape {
          dim {
            size: 2
          }
        }
      }
    }
  }
  attr {
    key: "out_type"
    value {
      type: DT_INT32
    }
  }
}
node {
  name: "dnn/input_from_feature_columns/input_layer/Age/strided_slice/stack"
  op: "Const"
  attr {
    key: "_output_shapes"
    value {
      list {
        shape {
          dim {
            size: 1
          }
        }
      }
    }
  }
  attr {
    key: "dtype"
    value {
      type: DT_INT32
    }
  }
  attr {
    key: "value"
    value {
      tensor {
        dtype: DT_INT32
        tensor_shape {
          dim {
            size: 1
          }
        }
        int_val: 0
      }
    }
  }
}
node {
  name: "dnn/input_from_feature_columns/input_layer/Age/strided_slice/stack_1"
  op: "Const"
  attr {
    key: "_output_shapes"
    value {
      list {
        shape {
          dim {
            size: 1
          }
        }
      }
    }
  }
  attr {
    key: "dtype"
    value {
      type: DT_INT32
    }
  }
  attr {
    key: "value"
    value {
      tensor {
        dtype: DT_INT32
        tensor_shape {
          dim {
            size: 1
          }
        }
        int_val: 1
      }
    }
  }
}
node {
  name: "dnn/input_from_feature_columns/input_layer/Age/strided_slice/stack_2"
  op: "Const"
  attr {
    key: "_output_shapes"
    value {
      list {
        shape {
          dim {
            size: 1
          }
        }
      }
    }
  }
  attr {
    key: "dtype"
    value {
      type: DT_INT32
    }
  }
  attr {
    key: "value"
    value {
      tensor {
        dtype: DT_INT32
        tensor_shape {
          dim {
            size: 1
          }
        }
        int_val: 1
      }
    }
  }
}
node {
  name: "dnn/input_from_feature_columns/input_layer/Age/strided_slice"
  op: "StridedSlice"
  input: "dnn/input_from_feature_columns/input_layer/Age/Shape"
  input: "dnn/input_from_feature_columns/input_layer/Age/strided_slice/stack"
  input: "dnn/input_from_feature_columns/input_layer/Age/strided_slice/stack_1"
  input: "dnn/input_from_feature_columns/input_layer/Age/strided_slice/stack_2"
  attr {
    key: "Index"
    value {
      type: DT_INT32
    }
  }
  attr {
    key: "T"
    value {
      type: DT_INT32
    }
  }
  attr {
    key: "_output_shapes"
    value {
      list {
        shape {
        }
      }
    }
  }
  attr {
    key: "begin_mask"
    value {
      i: 0
    }
  }
  attr {
    key: "ellipsis_mask"
    value {
      i: 0
    }
  }
  attr {
    key: "end_mask"
    value {
      i: 0
    }
  }
  attr {
    key: "new_axis_mask"
    value {
      i: 0
    }
  }
  attr {
    key: "shrink_axis_mask"
    value {
      i: 1
    }
  }
}
node {
  name: "dnn/input_from_feature_columns/input_layer/Age/Reshape/shape/1"
  op: "Const"
  attr {
    key: "_output_shapes"
    value {
      list {
        shape {
        }
      }
    }
  }
  attr {
    key: "dtype"
    value {
      type: DT_INT32
    }
  }
  attr {
    key: "value"
    value {
      tensor {
        dtype: DT_INT32
        tensor_shape {
        }
        int_val: 1
      }
    }
  }
}
node {
  name: "dnn/input_from_feature_columns/input_layer/Age/Reshape/shape"
  op: "Pack"
  input: "dnn/input_from_feature_columns/input_layer/Age/strided_slice"
  input: "dnn/input_from_feature_columns/input_layer/Age/Reshape/shape/1"
  attr {
    key: "N"
    value {
      i: 2
    }
  }
  attr {
    key: "T"
    value {
      type: DT_INT32
    }
  }
  attr {
    key: "_output_shapes"
    value {
      list {
        shape {
          dim {
            size: 2
          }
        }
      }
    }
  }
  attr {
    key: "axis"
    value {
      i: 0
    }
  }
}
node {
  name: "dnn/input_from_feature_columns/input_layer/Age/Reshape"
  op: "Reshape"
  input: "dnn/input_from_feature_columns/input_layer/Age/ToFloat"
  input: "dnn/input_from_feature_columns/input_layer/Age/Reshape/shape"
  attr {
    key: "T"
    value {
      type: DT_FLOAT
    }
  }
  attr {
    key: "Tshape"
    value {
      type: DT_INT32
    }
  }
  attr {
    key: "_output_shapes"
    value {
      list {
        shape {
          dim {
            size: -1
          }
          dim {
            size: 1
          }
        }
      }
    }
  }
}
node {
  name: "dnn/input_from_feature_columns/input_layer/Cabin_embedding/ExpandDims/dim"
  op: "Const"
  attr {
    key: "_output_shapes"
    value {
      list {
        shape {
        }
      }
    }
  }
  attr {
    key: "dtype"
    value {
      type: DT_INT32
    }
  }
  attr {
    key: "value"
    value {
      tensor {
        dtype: DT_INT32
        tensor_shape {
        }
        int_val: -1
      }
    }
  }
}
node {
  name: "dnn/input_from_feature_columns/input_layer/Cabin_embedding/ExpandDims"
  op: "ExpandDims"
  input: "random_shuffle_queue_DequeueUpTo:8"
  input: "dnn/input_from_feature_columns/input_layer/Cabin_embedding/ExpandDims/dim"
  attr {
    key: "T"
    value {
      type: DT_STRING
    }
  }
  attr {
    key: "Tdim"
    value {
      type: DT_INT32
    }
  }
  attr {
    key: "_output_shapes"
    value {
      list {
        shape {
          dim {
            size: -1
          }
          dim {
            size: 1
          }
        }
      }
    }
  }
}
node {
  name: "dnn/input_from_feature_columns/input_layer/Cabin_embedding/to_sparse_input/ignore_value/x"
  op: "Const"
  attr {
    key: "_output_shapes"
    value {
      list {
        shape {
        }
      }
    }
  }
  attr {
    key: "dtype"
    value {
      type: DT_STRING
    }
  }
  attr {
    key: "value"
    value {
      tensor {
        dtype: DT_STRING
        tensor_shape {
        }
        string_val: ""
      }
    }
  }
}
node {
  name: "dnn/input_from_feature_columns/input_layer/Cabin_embedding/to_sparse_input/NotEqual"
  op: "NotEqual"
  input: "dnn/input_from_feature_columns/input_layer/Cabin_embedding/ExpandDims"
  input: "dnn/input_from_feature_columns/input_layer/Cabin_embedding/to_sparse_input/ignore_value/x"
  attr {
    key: "T"
    value {
      type: DT_STRING
    }
  }
  attr {
    key: "_output_shapes"
    value {
      list {
        shape {
          dim {
            size: -1
          }
          dim {
            size: 1
          }
        }
      }
    }
  }
}
node {
  name: "dnn/input_from_feature_columns/input_layer/Cabin_embedding/to_sparse_input/indices"
  op: "Where"
  input: "dnn/input_from_feature_columns/input_layer/Cabin_embedding/to_sparse_input/NotEqual"
  attr {
    key: "T"
    value {
      type: DT_BOOL
    }
  }
  attr {
    key: "_output_shapes"
    value {
      list {
        shape {
          dim {
            size: -1
          }
          dim {
            size: 2
          }
        }
      }
    }
  }
}
node {
  name: "dnn/input_from_feature_columns/input_layer/Cabin_embedding/to_sparse_input/values"
  op: "GatherNd"
  input: "dnn/input_from_feature_columns/input_layer/Cabin_embedding/ExpandDims"
  input: "dnn/input_from_feature_columns/input_layer/Cabin_embedding/to_sparse_input/indices"
  attr {
    key: "Tindices"
    value {
      type: DT_INT64
    }
  }
  attr {
    key: "Tparams"
    value {
      type: DT_STRING
    }
  }
  attr {
    key: "_output_shapes"
    value {
      list {
        shape {
          dim {
            size: -1
          }
        }
      }
    }
  }
}
node {
  name: "dnn/input_from_feature_columns/input_layer/Cabin_embedding/to_sparse_input/dense_shape"
  op: "Shape"
  input: "dnn/input_from_feature_columns/input_layer/Cabin_embedding/ExpandDims"
  attr {
    key: "T"
    value {
      type: DT_STRING
    }
  }
  attr {
    key: "_output_shapes"
    value {
      list {
        shape {
          dim {
            size: 2
          }
        }
      }
    }
  }
  attr {
    key: "out_type"
    value {
      type: DT_INT64
    }
  }
}
node {
  name: "dnn/input_from_feature_columns/input_layer/Cabin_embedding/Cabin_lookup/Const"
  op: "Const"
  attr {
    key: "_output_shapes"
    value {
      list {
        shape {
          dim {
            size: 9
          }
        }
      }
    }
  }
  attr {
    key: "dtype"
    value {
      type: DT_STRING
    }
  }
  attr {
    key: "value"
    value {
      tensor {
        dtype: DT_STRING
        tensor_shape {
          dim {
            size: 9
          }
        }
        string_val: "N"
        string_val: "C"
        string_val: "E"
        string_val: "G"
        string_val: "D"
        string_val: "A"
        string_val: "B"
        string_val: "F"
        string_val: "T"
      }
    }
  }
}
node {
  name: "dnn/input_from_feature_columns/input_layer/Cabin_embedding/Cabin_lookup/Size"
  op: "Const"
  attr {
    key: "_output_shapes"
    value {
      list {
        shape {
        }
      }
    }
  }
  attr {
    key: "dtype"
    value {
      type: DT_INT32
    }
  }
  attr {
    key: "value"
    value {
      tensor {
        dtype: DT_INT32
        tensor_shape {
        }
        int_val: 9
      }
    }
  }
}
node {
  name: "dnn/input_from_feature_columns/input_layer/Cabin_embedding/Cabin_lookup/range/start"
  op: "Const"
  attr {
    key: "_output_shapes"
    value {
      list {
        shape {
        }
      }
    }
  }
  attr {
    key: "dtype"
    value {
      type: DT_INT32
    }
  }
  attr {
    key: "value"
    value {
      tensor {
        dtype: DT_INT32
        tensor_shape {
        }
        int_val: 0
      }
    }
  }
}
node {
  name: "dnn/input_from_feature_columns/input_layer/Cabin_embedding/Cabin_lookup/range/delta"
  op: "Const"
  attr {
    key: "_output_shapes"
    value {
      list {
        shape {
        }
      }
    }
  }
  attr {
    key: "dtype"
    value {
      type: DT_INT32
    }
  }
  attr {
    key: "value"
    value {
      tensor {
        dtype: DT_INT32
        tensor_shape {
        }
        int_val: 1
      }
    }
  }
}
node {
  name: "dnn/input_from_feature_columns/input_layer/Cabin_embedding/Cabin_lookup/range"
  op: "Range"
  input: "dnn/input_from_feature_columns/input_layer/Cabin_embedding/Cabin_lookup/range/start"
  input: "dnn/input_from_feature_columns/input_layer/Cabin_embedding/Cabin_lookup/Size"
  input: "dnn/input_from_feature_columns/input_layer/Cabin_embedding/Cabin_lookup/range/delta"
  attr {
    key: "Tidx"
    value {
      type: DT_INT32
    }
  }
  attr {
    key: "_output_shapes"
    value {
      list {
        shape {
          dim {
            size: 9
          }
        }
      }
    }
  }
}
node {
  name: "dnn/input_from_feature_columns/input_layer/Cabin_embedding/Cabin_lookup/ToInt64"
  op: "Cast"
  input: "dnn/input_from_feature_columns/input_layer/Cabin_embedding/Cabin_lookup/range"
  attr {
    key: "DstT"
    value {
      type: DT_INT64
    }
  }
  attr {
    key: "SrcT"
    value {
      type: DT_INT32
    }
  }
  attr {
    key: "_output_shapes"
    value {
      list {
        shape {
          dim {
            size: 9
          }
        }
      }
    }
  }
}
node {
  name: "dnn/input_from_feature_columns/input_layer/Cabin_embedding/Cabin_lookup/hash_table"
  op: "HashTableV2"
  attr {
    key: "_output_shapes"
    value {
      list {
        shape {
        }
      }
    }
  }
  attr {
    key: "container"
    value {
      s: ""
    }
  }
  attr {
    key: "key_dtype"
    value {
      type: DT_STRING
    }
  }
  attr {
    key: "shared_name"
    value {
      s: ""
    }
  }
  attr {
    key: "use_node_name_sharing"
    value {
      b: false
    }
  }
  attr {
    key: "value_dtype"
    value {
      type: DT_INT64
    }
  }
}
node {
  name: "dnn/input_from_feature_columns/input_layer/Cabin_embedding/Cabin_lookup/hash_table/Const"
  op: "Const"
  attr {
    key: "_output_shapes"
    value {
      list {
        shape {
        }
      }
    }
  }
  attr {
    key: "dtype"
    value {
      type: DT_INT64
    }
  }
  attr {
    key: "value"
    value {
      tensor {
        dtype: DT_INT64
        tensor_shape {
        }
        int64_val: -1
      }
    }
  }
}
node {
  name: "dnn/input_from_feature_columns/input_layer/Cabin_embedding/Cabin_lookup/hash_table/table_init"
  op: "InitializeTableV2"
  input: "dnn/input_from_feature_columns/input_layer/Cabin_embedding/Cabin_lookup/hash_table"
  input: "dnn/input_from_feature_columns/input_layer/Cabin_embedding/Cabin_lookup/Const"
  input: "dnn/input_from_feature_columns/input_layer/Cabin_embedding/Cabin_lookup/ToInt64"
  attr {
    key: "Tkey"
    value {
      type: DT_STRING
    }
  }
  attr {
    key: "Tval"
    value {
      type: DT_INT64
    }
  }
}
node {
  name: "dnn/input_from_feature_columns/input_layer/Cabin_embedding/hash_table_Lookup"
  op: "LookupTableFindV2"
  input: "dnn/input_from_feature_columns/input_layer/Cabin_embedding/Cabin_lookup/hash_table"
  input: "dnn/input_from_feature_columns/input_layer/Cabin_embedding/to_sparse_input/values"
  input: "dnn/input_from_feature_columns/input_layer/Cabin_embedding/Cabin_lookup/hash_table/Const"
  attr {
    key: "Tin"
    value {
      type: DT_STRING
    }
  }
  attr {
    key: "Tout"
    value {
      type: DT_INT64
    }
  }
  attr {
    key: "_output_shapes"
    value {
      list {
        shape {
          dim {
            size: -1
          }
        }
      }
    }
  }
}
node {
  name: "dnn/input_from_feature_columns/input_layer/Cabin_embedding/embedding_weights/part_0/Initializer/truncated_normal/shape"
  op: "Const"
  attr {
    key: "_class"
    value {
      list {
        s: "loc:@dnn/input_from_feature_columns/input_layer/Cabin_embedding/embedding_weights/part_0"
      }
    }
  }
  attr {
    key: "_output_shapes"
    value {
      list {
        shape {
          dim {
            size: 2
          }
        }
      }
    }
  }
  attr {
    key: "dtype"
    value {
      type: DT_INT32
    }
  }
  attr {
    key: "value"
    value {
      tensor {
        dtype: DT_INT32
        tensor_shape {
          dim {
            size: 2
          }
        }
        tensor_content: "\t\000\000\000\003\000\000\000"
      }
    }
  }
}
node {
  name: "dnn/input_from_feature_columns/input_layer/Cabin_embedding/embedding_weights/part_0/Initializer/truncated_normal/mean"
  op: "Const"
  attr {
    key: "_class"
    value {
      list {
        s: "loc:@dnn/input_from_feature_columns/input_layer/Cabin_embedding/embedding_weights/part_0"
      }
    }
  }
  attr {
    key: "_output_shapes"
    value {
      list {
        shape {
        }
      }
    }
  }
  attr {
    key: "dtype"
    value {
      type: DT_FLOAT
    }
  }
  attr {
    key: "value"
    value {
      tensor {
        dtype: DT_FLOAT
        tensor_shape {
        }
        float_val: 0.0
      }
    }
  }
}
node {
  name: "dnn/input_from_feature_columns/input_layer/Cabin_embedding/embedding_weights/part_0/Initializer/truncated_normal/stddev"
  op: "Const"
  attr {
    key: "_class"
    value {
      list {
        s: "loc:@dnn/input_from_feature_columns/input_layer/Cabin_embedding/embedding_weights/part_0"
      }
    }
  }
  attr {
    key: "_output_shapes"
    value {
      list {
        shape {
        }
      }
    }
  }
  attr {
    key: "dtype"
    value {
      type: DT_FLOAT
    }
  }
  attr {
    key: "value"
    value {
      tensor {
        dtype: DT_FLOAT
        tensor_shape {
        }
        float_val: 0.5773502588272095
      }
    }
  }
}
node {
  name: "dnn/input_from_feature_columns/input_layer/Cabin_embedding/embedding_weights/part_0/Initializer/truncated_normal/TruncatedNormal"
  op: "TruncatedNormal"
  input: "dnn/input_from_feature_columns/input_layer/Cabin_embedding/embedding_weights/part_0/Initializer/truncated_normal/shape"
  attr {
    key: "T"
    value {
      type: DT_INT32
    }
  }
  attr {
    key: "_class"
    value {
      list {
        s: "loc:@dnn/input_from_feature_columns/input_layer/Cabin_embedding/embedding_weights/part_0"
      }
    }
  }
  attr {
    key: "_output_shapes"
    value {
      list {
        shape {
          dim {
            size: 9
          }
          dim {
            size: 3
          }
        }
      }
    }
  }
  attr {
    key: "dtype"
    value {
      type: DT_FLOAT
    }
  }
  attr {
    key: "seed"
    value {
      i: 0
    }
  }
  attr {
    key: "seed2"
    value {
      i: 0
    }
  }
}
node {
  name: "dnn/input_from_feature_columns/input_layer/Cabin_embedding/embedding_weights/part_0/Initializer/truncated_normal/mul"
  op: "Mul"
  input: "dnn/input_from_feature_columns/input_layer/Cabin_embedding/embedding_weights/part_0/Initializer/truncated_normal/TruncatedNormal"
  input: "dnn/input_from_feature_columns/input_layer/Cabin_embedding/embedding_weights/part_0/Initializer/truncated_normal/stddev"
  attr {
    key: "T"
    value {
      type: DT_FLOAT
    }
  }
  attr {
    key: "_class"
    value {
      list {
        s: "loc:@dnn/input_from_feature_columns/input_layer/Cabin_embedding/embedding_weights/part_0"
      }
    }
  }
  attr {
    key: "_output_shapes"
    value {
      list {
        shape {
          dim {
            size: 9
          }
          dim {
            size: 3
          }
        }
      }
    }
  }
}
node {
  name: "dnn/input_from_feature_columns/input_layer/Cabin_embedding/embedding_weights/part_0/Initializer/truncated_normal"
  op: "Add"
  input: "dnn/input_from_feature_columns/input_layer/Cabin_embedding/embedding_weights/part_0/Initializer/truncated_normal/mul"
  input: "dnn/input_from_feature_columns/input_layer/Cabin_embedding/embedding_weights/part_0/Initializer/truncated_normal/mean"
  attr {
    key: "T"
    value {
      type: DT_FLOAT
    }
  }
  attr {
    key: "_class"
    value {
      list {
        s: "loc:@dnn/input_from_feature_columns/input_layer/Cabin_embedding/embedding_weights/part_0"
      }
    }
  }
  attr {
    key: "_output_shapes"
    value {
      list {
        shape {
          dim {
            size: 9
          }
          dim {
            size: 3
          }
        }
      }
    }
  }
}
node {
  name: "dnn/input_from_feature_columns/input_layer/Cabin_embedding/embedding_weights/part_0"
  op: "VariableV2"
  attr {
    key: "_class"
    value {
      list {
        s: "loc:@dnn/input_from_feature_columns/input_layer/Cabin_embedding/embedding_weights/part_0"
      }
    }
  }
  attr {
    key: "_output_shapes"
    value {
      list {
        shape {
          dim {
            size: 9
          }
          dim {
            size: 3
          }
        }
      }
    }
  }
  attr {
    key: "container"
    value {
      s: ""
    }
  }
  attr {
    key: "dtype"
    value {
      type: DT_FLOAT
    }
  }
  attr {
    key: "shape"
    value {
      shape {
        dim {
          size: 9
        }
        dim {
          size: 3
        }
      }
    }
  }
  attr {
    key: "shared_name"
    value {
      s: ""
    }
  }
}
node {
  name: "dnn/input_from_feature_columns/input_layer/Cabin_embedding/embedding_weights/part_0/Assign"
  op: "Assign"
  input: "dnn/input_from_feature_columns/input_layer/Cabin_embedding/embedding_weights/part_0"
  input: "dnn/input_from_feature_columns/input_layer/Cabin_embedding/embedding_weights/part_0/Initializer/truncated_normal"
  attr {
    key: "T"
    value {
      type: DT_FLOAT
    }
  }
  attr {
    key: "_class"
    value {
      list {
        s: "loc:@dnn/input_from_feature_columns/input_layer/Cabin_embedding/embedding_weights/part_0"
      }
    }
  }
  attr {
    key: "_output_shapes"
    value {
      list {
        shape {
          dim {
            size: 9
          }
          dim {
            size: 3
          }
        }
      }
    }
  }
  attr {
    key: "use_locking"
    value {
      b: true
    }
  }
  attr {
    key: "validate_shape"
    value {
      b: true
    }
  }
}
node {
  name: "dnn/input_from_feature_columns/input_layer/Cabin_embedding/embedding_weights/part_0/read"
  op: "Identity"
  input: "dnn/input_from_feature_columns/input_layer/Cabin_embedding/embedding_weights/part_0"
  attr {
    key: "T"
    value {
      type: DT_FLOAT
    }
  }
  attr {
    key: "_class"
    value {
      list {
        s: "loc:@dnn/input_from_feature_columns/input_layer/Cabin_embedding/embedding_weights/part_0"
      }
    }
  }
  attr {
    key: "_output_shapes"
    value {
      list {
        shape {
          dim {
            size: 9
          }
          dim {
            size: 3
          }
        }
      }
    }
  }
}
node {
  name: "dnn/input_from_feature_columns/input_layer/Cabin_embedding/Cabin_embedding_weights/Slice/begin"
  op: "Const"
  attr {
    key: "_output_shapes"
    value {
      list {
        shape {
          dim {
            size: 1
          }
        }
      }
    }
  }
  attr {
    key: "dtype"
    value {
      type: DT_INT32
    }
  }
  attr {
    key: "value"
    value {
      tensor {
        dtype: DT_INT32
        tensor_shape {
          dim {
            size: 1
          }
        }
        int_val: 0
      }
    }
  }
}
node {
  name: "dnn/input_from_feature_columns/input_layer/Cabin_embedding/Cabin_embedding_weights/Slice/size"
  op: "Const"
  attr {
    key: "_output_shapes"
    value {
      list {
        shape {
          dim {
            size: 1
          }
        }
      }
    }
  }
  attr {
    key: "dtype"
    value {
      type: DT_INT32
    }
  }
  attr {
    key: "value"
    value {
      tensor {
        dtype: DT_INT32
        tensor_shape {
          dim {
            size: 1
          }
        }
        int_val: 1
      }
    }
  }
}
node {
  name: "dnn/input_from_feature_columns/input_layer/Cabin_embedding/Cabin_embedding_weights/Slice"
  op: "Slice"
  input: "dnn/input_from_feature_columns/input_layer/Cabin_embedding/to_sparse_input/dense_shape"
  input: "dnn/input_from_feature_columns/input_layer/Cabin_embedding/Cabin_embedding_weights/Slice/begin"
  input: "dnn/input_from_feature_columns/input_layer/Cabin_embedding/Cabin_embedding_weights/Slice/size"
  attr {
    key: "Index"
    value {
      type: DT_INT32
    }
  }
  attr {
    key: "T"
    value {
      type: DT_INT64
    }
  }
  attr {
    key: "_output_shapes"
    value {
      list {
        shape {
          dim {
            size: 1
          }
        }
      }
    }
  }
}
node {
  name: "dnn/input_from_feature_columns/input_layer/Cabin_embedding/Cabin_embedding_weights/Const"
  op: "Const"
  attr {
    key: "_output_shapes"
    value {
      list {
        shape {
          dim {
            size: 1
          }
        }
      }
    }
  }
  attr {
    key: "dtype"
    value {
      type: DT_INT32
    }
  }
  attr {
    key: "value"
    value {
      tensor {
        dtype: DT_INT32
        tensor_shape {
          dim {
            size: 1
          }
        }
        int_val: 0
      }
    }
  }
}
node {
  name: "dnn/input_from_feature_columns/input_layer/Cabin_embedding/Cabin_embedding_weights/Prod"
  op: "Prod"
  input: "dnn/input_from_feature_columns/input_layer/Cabin_embedding/Cabin_embedding_weights/Slice"
  input: "dnn/input_from_feature_columns/input_layer/Cabin_embedding/Cabin_embedding_weights/Const"
  attr {
    key: "T"
    value {
      type: DT_INT64
    }
  }
  attr {
    key: "Tidx"
    value {
      type: DT_INT32
    }
  }
  attr {
    key: "_output_shapes"
    value {
      list {
        shape {
        }
      }
    }
  }
  attr {
    key: "keep_dims"
    value {
      b: false
    }
  }
}
node {
  name: "dnn/input_from_feature_columns/input_layer/Cabin_embedding/Cabin_embedding_weights/GatherV2/indices"
  op: "Const"
  attr {
    key: "_output_shapes"
    value {
      list {
        shape {
        }
      }
    }
  }
  attr {
    key: "dtype"
    value {
      type: DT_INT32
    }
  }
  attr {
    key: "value"
    value {
      tensor {
        dtype: DT_INT32
        tensor_shape {
        }
        int_val: 1
      }
    }
  }
}
node {
  name: "dnn/input_from_feature_columns/input_layer/Cabin_embedding/Cabin_embedding_weights/GatherV2/axis"
  op: "Const"
  attr {
    key: "_output_shapes"
    value {
      list {
        shape {
        }
      }
    }
  }
  attr {
    key: "dtype"
    value {
      type: DT_INT32
    }
  }
  attr {
    key: "value"
    value {
      tensor {
        dtype: DT_INT32
        tensor_shape {
        }
        int_val: 0
      }
    }
  }
}
node {
  name: "dnn/input_from_feature_columns/input_layer/Cabin_embedding/Cabin_embedding_weights/GatherV2"
  op: "GatherV2"
  input: "dnn/input_from_feature_columns/input_layer/Cabin_embedding/to_sparse_input/dense_shape"
  input: "dnn/input_from_feature_columns/input_layer/Cabin_embedding/Cabin_embedding_weights/GatherV2/indices"
  input: "dnn/input_from_feature_columns/input_layer/Cabin_embedding/Cabin_embedding_weights/GatherV2/axis"
  attr {
    key: "Taxis"
    value {
      type: DT_INT32
    }
  }
  attr {
    key: "Tindices"
    value {
      type: DT_INT32
    }
  }
  attr {
    key: "Tparams"
    value {
      type: DT_INT64
    }
  }
  attr {
    key: "_output_shapes"
    value {
      list {
        shape {
        }
      }
    }
  }
}
node {
  name: "dnn/input_from_feature_columns/input_layer/Cabin_embedding/Cabin_embedding_weights/Cast/x"
  op: "Pack"
  input: "dnn/input_from_feature_columns/input_layer/Cabin_embedding/Cabin_embedding_weights/Prod"
  input: "dnn/input_from_feature_columns/input_layer/Cabin_embedding/Cabin_embedding_weights/GatherV2"
  attr {
    key: "N"
    value {
      i: 2
    }
  }
  attr {
    key: "T"
    value {
      type: DT_INT64
    }
  }
  attr {
    key: "_output_shapes"
    value {
      list {
        shape {
          dim {
            size: 2
          }
        }
      }
    }
  }
  attr {
    key: "axis"
    value {
      i: 0
    }
  }
}
node {
  name: "dnn/input_from_feature_columns/input_layer/Cabin_embedding/Cabin_embedding_weights/SparseReshape"
  op: "SparseReshape"
  input: "dnn/input_from_feature_columns/input_layer/Cabin_embedding/to_sparse_input/indices"
  input: "dnn/input_from_feature_columns/input_layer/Cabin_embedding/to_sparse_input/dense_shape"
  input: "dnn/input_from_feature_columns/input_layer/Cabin_embedding/Cabin_embedding_weights/Cast/x"
  attr {
    key: "_output_shapes"
    value {
      list {
        shape {
          dim {
            size: -1
          }
          dim {
            size: 2
          }
        }
        shape {
          dim {
            size: 2
          }
        }
      }
    }
  }
}
node {
  name: "dnn/input_from_feature_columns/input_layer/Cabin_embedding/Cabin_embedding_weights/SparseReshape/Identity"
  op: "Identity"
  input: "dnn/input_from_feature_columns/input_layer/Cabin_embedding/hash_table_Lookup"
  attr {
    key: "T"
    value {
      type: DT_INT64
    }
  }
  attr {
    key: "_output_shapes"
    value {
      list {
        shape {
          dim {
            size: -1
          }
        }
      }
    }
  }
}
node {
  name: "dnn/input_from_feature_columns/input_layer/Cabin_embedding/Cabin_embedding_weights/GreaterEqual/y"
  op: "Const"
  attr {
    key: "_output_shapes"
    value {
      list {
        shape {
        }
      }
    }
  }
  attr {
    key: "dtype"
    value {
      type: DT_INT64
    }
  }
  attr {
    key: "value"
    value {
      tensor {
        dtype: DT_INT64
        tensor_shape {
        }
        int64_val: 0
      }
    }
  }
}
node {
  name: "dnn/input_from_feature_columns/input_layer/Cabin_embedding/Cabin_embedding_weights/GreaterEqual"
  op: "GreaterEqual"
  input: "dnn/input_from_feature_columns/input_layer/Cabin_embedding/Cabin_embedding_weights/SparseReshape/Identity"
  input: "dnn/input_from_feature_columns/input_layer/Cabin_embedding/Cabin_embedding_weights/GreaterEqual/y"
  attr {
    key: "T"
    value {
      type: DT_INT64
    }
  }
  attr {
    key: "_output_shapes"
    value {
      list {
        shape {
          dim {
            size: -1
          }
        }
      }
    }
  }
}
node {
  name: "dnn/input_from_feature_columns/input_layer/Cabin_embedding/Cabin_embedding_weights/Where"
  op: "Where"
  input: "dnn/input_from_feature_columns/input_layer/Cabin_embedding/Cabin_embedding_weights/GreaterEqual"
  attr {
    key: "T"
    value {
      type: DT_BOOL
    }
  }
  attr {
    key: "_output_shapes"
    value {
      list {
        shape {
          dim {
            size: -1
          }
          dim {
            size: 1
          }
        }
      }
    }
  }
}
node {
  name: "dnn/input_from_feature_columns/input_layer/Cabin_embedding/Cabin_embedding_weights/Reshape/shape"
  op: "Const"
  attr {
    key: "_output_shapes"
    value {
      list {
        shape {
          dim {
            size: 1
          }
        }
      }
    }
  }
  attr {
    key: "dtype"
    value {
      type: DT_INT32
    }
  }
  attr {
    key: "value"
    value {
      tensor {
        dtype: DT_INT32
        tensor_shape {
          dim {
            size: 1
          }
        }
        int_val: -1
      }
    }
  }
}
node {
  name: "dnn/input_from_feature_columns/input_layer/Cabin_embedding/Cabin_embedding_weights/Reshape"
  op: "Reshape"
  input: "dnn/input_from_feature_columns/input_layer/Cabin_embedding/Cabin_embedding_weights/Where"
  input: "dnn/input_from_feature_columns/input_layer/Cabin_embedding/Cabin_embedding_weights/Reshape/shape"
  attr {
    key: "T"
    value {
      type: DT_INT64
    }
  }
  attr {
    key: "Tshape"
    value {
      type: DT_INT32
    }
  }
  attr {
    key: "_output_shapes"
    value {
      list {
        shape {
          dim {
            size: -1
          }
        }
      }
    }
  }
}
node {
  name: "dnn/input_from_feature_columns/input_layer/Cabin_embedding/Cabin_embedding_weights/GatherV2_1/axis"
  op: "Const"
  attr {
    key: "_output_shapes"
    value {
      list {
        shape {
        }
      }
    }
  }
  attr {
    key: "dtype"
    value {
      type: DT_INT32
    }
  }
  attr {
    key: "value"
    value {
      tensor {
        dtype: DT_INT32
        tensor_shape {
        }
        int_val: 0
      }
    }
  }
}
node {
  name: "dnn/input_from_feature_columns/input_layer/Cabin_embedding/Cabin_embedding_weights/GatherV2_1"
  op: "GatherV2"
  input: "dnn/input_from_feature_columns/input_layer/Cabin_embedding/Cabin_embedding_weights/SparseReshape"
  input: "dnn/input_from_feature_columns/input_layer/Cabin_embedding/Cabin_embedding_weights/Reshape"
  input: "dnn/input_from_feature_columns/input_layer/Cabin_embedding/Cabin_embedding_weights/GatherV2_1/axis"
  attr {
    key: "Taxis"
    value {
      type: DT_INT32
    }
  }
  attr {
    key: "Tindices"
    value {
      type: DT_INT64
    }
  }
  attr {
    key: "Tparams"
    value {
      type: DT_INT64
    }
  }
  attr {
    key: "_output_shapes"
    value {
      list {
        shape {
          dim {
            size: -1
          }
          dim {
            size: 2
          }
        }
      }
    }
  }
}
node {
  name: "dnn/input_from_feature_columns/input_layer/Cabin_embedding/Cabin_embedding_weights/GatherV2_2/axis"
  op: "Const"
  attr {
    key: "_output_shapes"
    value {
      list {
        shape {
        }
      }
    }
  }
  attr {
    key: "dtype"
    value {
      type: DT_INT32
    }
  }
  attr {
    key: "value"
    value {
      tensor {
        dtype: DT_INT32
        tensor_shape {
        }
        int_val: 0
      }
    }
  }
}
node {
  name: "dnn/input_from_feature_columns/input_layer/Cabin_embedding/Cabin_embedding_weights/GatherV2_2"
  op: "GatherV2"
  input: "dnn/input_from_feature_columns/input_layer/Cabin_embedding/Cabin_embedding_weights/SparseReshape/Identity"
  input: "dnn/input_from_feature_columns/input_layer/Cabin_embedding/Cabin_embedding_weights/Reshape"
  input: "dnn/input_from_feature_columns/input_layer/Cabin_embedding/Cabin_embedding_weights/GatherV2_2/axis"
  attr {
    key: "Taxis"
    value {
      type: DT_INT32
    }
  }
  attr {
    key: "Tindices"
    value {
      type: DT_INT64
    }
  }
  attr {
    key: "Tparams"
    value {
      type: DT_INT64
    }
  }
  attr {
    key: "_output_shapes"
    value {
      list {
        shape {
          dim {
            size: -1
          }
        }
      }
    }
  }
}
node {
  name: "dnn/input_from_feature_columns/input_layer/Cabin_embedding/Cabin_embedding_weights/Identity"
  op: "Identity"
  input: "dnn/input_from_feature_columns/input_layer/Cabin_embedding/Cabin_embedding_weights/SparseReshape:1"
  attr {
    key: "T"
    value {
      type: DT_INT64
    }
  }
  attr {
    key: "_output_shapes"
    value {
      list {
        shape {
          dim {
            size: 2
          }
        }
      }
    }
  }
}
node {
  name: "dnn/input_from_feature_columns/input_layer/Cabin_embedding/Cabin_embedding_weights/SparseFillEmptyRows/Const"
  op: "Const"
  attr {
    key: "_output_shapes"
    value {
      list {
        shape {
        }
      }
    }
  }
  attr {
    key: "dtype"
    value {
      type: DT_INT64
    }
  }
  attr {
    key: "value"
    value {
      tensor {
        dtype: DT_INT64
        tensor_shape {
        }
        int64_val: 0
      }
    }
  }
}
node {
  name: "dnn/input_from_feature_columns/input_layer/Cabin_embedding/Cabin_embedding_weights/SparseFillEmptyRows/SparseFillEmptyRows"
  op: "SparseFillEmptyRows"
  input: "dnn/input_from_feature_columns/input_layer/Cabin_embedding/Cabin_embedding_weights/GatherV2_1"
  input: "dnn/input_from_feature_columns/input_layer/Cabin_embedding/Cabin_embedding_weights/GatherV2_2"
  input: "dnn/input_from_feature_columns/input_layer/Cabin_embedding/Cabin_embedding_weights/Identity"
  input: "dnn/input_from_feature_columns/input_layer/Cabin_embedding/Cabin_embedding_weights/SparseFillEmptyRows/Const"
  attr {
    key: "T"
    value {
      type: DT_INT64
    }
  }
  attr {
    key: "_output_shapes"
    value {
      list {
        shape {
          dim {
            size: -1
          }
          dim {
            size: 2
          }
        }
        shape {
          dim {
            size: -1
          }
        }
        shape {
          dim {
            size: -1
          }
        }
        shape {
          dim {
            size: -1
          }
        }
      }
    }
  }
}
node {
  name: "dnn/input_from_feature_columns/input_layer/Cabin_embedding/Cabin_embedding_weights/embedding_lookup_sparse/strided_slice/stack"
  op: "Const"
  attr {
    key: "_output_shapes"
    value {
      list {
        shape {
          dim {
            size: 2
          }
        }
      }
    }
  }
  attr {
    key: "dtype"
    value {
      type: DT_INT32
    }
  }
  attr {
    key: "value"
    value {
      tensor {
        dtype: DT_INT32
        tensor_shape {
          dim {
            size: 2
          }
        }
        tensor_content: "\000\000\000\000\000\000\000\000"
      }
    }
  }
}
node {
  name: "dnn/input_from_feature_columns/input_layer/Cabin_embedding/Cabin_embedding_weights/embedding_lookup_sparse/strided_slice/stack_1"
  op: "Const"
  attr {
    key: "_output_shapes"
    value {
      list {
        shape {
          dim {
            size: 2
          }
        }
      }
    }
  }
  attr {
    key: "dtype"
    value {
      type: DT_INT32
    }
  }
  attr {
    key: "value"
    value {
      tensor {
        dtype: DT_INT32
        tensor_shape {
          dim {
            size: 2
          }
        }
        tensor_content: "\000\000\000\000\001\000\000\000"
      }
    }
  }
}
node {
  name: "dnn/input_from_feature_columns/input_layer/Cabin_embedding/Cabin_embedding_weights/embedding_lookup_sparse/strided_slice/stack_2"
  op: "Const"
  attr {
    key: "_output_shapes"
    value {
      list {
        shape {
          dim {
            size: 2
          }
        }
      }
    }
  }
  attr {
    key: "dtype"
    value {
      type: DT_INT32
    }
  }
  attr {
    key: "value"
    value {
      tensor {
        dtype: DT_INT32
        tensor_shape {
          dim {
            size: 2
          }
        }
        tensor_content: "\001\000\000\000\001\000\000\000"
      }
    }
  }
}
node {
  name: "dnn/input_from_feature_columns/input_layer/Cabin_embedding/Cabin_embedding_weights/embedding_lookup_sparse/strided_slice"
  op: "StridedSlice"
  input: "dnn/input_from_feature_columns/input_layer/Cabin_embedding/Cabin_embedding_weights/SparseFillEmptyRows/SparseFillEmptyRows"
  input: "dnn/input_from_feature_columns/input_layer/Cabin_embedding/Cabin_embedding_weights/embedding_lookup_sparse/strided_slice/stack"
  input: "dnn/input_from_feature_columns/input_layer/Cabin_embedding/Cabin_embedding_weights/embedding_lookup_sparse/strided_slice/stack_1"
  input: "dnn/input_from_feature_columns/input_layer/Cabin_embedding/Cabin_embedding_weights/embedding_lookup_sparse/strided_slice/stack_2"
  attr {
    key: "Index"
    value {
      type: DT_INT32
    }
  }
  attr {
    key: "T"
    value {
      type: DT_INT64
    }
  }
  attr {
    key: "_output_shapes"
    value {
      list {
        shape {
          dim {
            size: -1
          }
        }
      }
    }
  }
  attr {
    key: "begin_mask"
    value {
      i: 1
    }
  }
  attr {
    key: "ellipsis_mask"
    value {
      i: 0
    }
  }
  attr {
    key: "end_mask"
    value {
      i: 1
    }
  }
  attr {
    key: "new_axis_mask"
    value {
      i: 0
    }
  }
  attr {
    key: "shrink_axis_mask"
    value {
      i: 2
    }
  }
}
node {
  name: "dnn/input_from_feature_columns/input_layer/Cabin_embedding/Cabin_embedding_weights/embedding_lookup_sparse/Cast"
  op: "Cast"
  input: "dnn/input_from_feature_columns/input_layer/Cabin_embedding/Cabin_embedding_weights/embedding_lookup_sparse/strided_slice"
  attr {
    key: "DstT"
    value {
      type: DT_INT32
    }
  }
  attr {
    key: "SrcT"
    value {
      type: DT_INT64
    }
  }
  attr {
    key: "_output_shapes"
    value {
      list {
        shape {
          dim {
            size: -1
          }
        }
      }
    }
  }
}
node {
  name: "dnn/input_from_feature_columns/input_layer/Cabin_embedding/Cabin_embedding_weights/embedding_lookup_sparse/Unique"
  op: "Unique"
  input: "dnn/input_from_feature_columns/input_layer/Cabin_embedding/Cabin_embedding_weights/SparseFillEmptyRows/SparseFillEmptyRows:1"
  attr {
    key: "T"
    value {
      type: DT_INT64
    }
  }
  attr {
    key: "_output_shapes"
    value {
      list {
        shape {
          dim {
            size: -1
          }
        }
        shape {
          dim {
            size: -1
          }
        }
      }
    }
  }
  attr {
    key: "out_idx"
    value {
      type: DT_INT32
    }
  }
}
node {
  name: "dnn/input_from_feature_columns/input_layer/Cabin_embedding/Cabin_embedding_weights/embedding_lookup_sparse/embedding_lookup/axis"
  op: "Const"
  attr {
    key: "_class"
    value {
      list {
        s: "loc:@dnn/input_from_feature_columns/input_layer/Cabin_embedding/embedding_weights/part_0"
      }
    }
  }
  attr {
    key: "_output_shapes"
    value {
      list {
        shape {
        }
      }
    }
  }
  attr {
    key: "dtype"
    value {
      type: DT_INT32
    }
  }
  attr {
    key: "value"
    value {
      tensor {
        dtype: DT_INT32
        tensor_shape {
        }
        int_val: 0
      }
    }
  }
}
node {
  name: "dnn/input_from_feature_columns/input_layer/Cabin_embedding/Cabin_embedding_weights/embedding_lookup_sparse/embedding_lookup"
  op: "GatherV2"
  input: "dnn/input_from_feature_columns/input_layer/Cabin_embedding/embedding_weights/part_0/read"
  input: "dnn/input_from_feature_columns/input_layer/Cabin_embedding/Cabin_embedding_weights/embedding_lookup_sparse/Unique"
  input: "dnn/input_from_feature_columns/input_layer/Cabin_embedding/Cabin_embedding_weights/embedding_lookup_sparse/embedding_lookup/axis"
  attr {
    key: "Taxis"
    value {
      type: DT_INT32
    }
  }
  attr {
    key: "Tindices"
    value {
      type: DT_INT64
    }
  }
  attr {
    key: "Tparams"
    value {
      type: DT_FLOAT
    }
  }
  attr {
    key: "_class"
    value {
      list {
        s: "loc:@dnn/input_from_feature_columns/input_layer/Cabin_embedding/embedding_weights/part_0"
      }
    }
  }
  attr {
    key: "_output_shapes"
    value {
      list {
        shape {
          dim {
            size: -1
          }
          dim {
            size: 3
          }
        }
      }
    }
  }
}
node {
  name: "dnn/input_from_feature_columns/input_layer/Cabin_embedding/Cabin_embedding_weights/embedding_lookup_sparse"
  op: "SparseSegmentMean"
  input: "dnn/input_from_feature_columns/input_layer/Cabin_embedding/Cabin_embedding_weights/embedding_lookup_sparse/embedding_lookup"
  input: "dnn/input_from_feature_columns/input_layer/Cabin_embedding/Cabin_embedding_weights/embedding_lookup_sparse/Unique:1"
  input: "dnn/input_from_feature_columns/input_layer/Cabin_embedding/Cabin_embedding_weights/embedding_lookup_sparse/Cast"
  attr {
    key: "T"
    value {
      type: DT_FLOAT
    }
  }
  attr {
    key: "Tidx"
    value {
      type: DT_INT32
    }
  }
  attr {
    key: "_output_shapes"
    value {
      list {
        shape {
          dim {
            size: -1
          }
          dim {
            size: 3
          }
        }
      }
    }
  }
}
node {
  name: "dnn/input_from_feature_columns/input_layer/Cabin_embedding/Cabin_embedding_weights/Reshape_1/shape"
  op: "Const"
  attr {
    key: "_output_shapes"
    value {
      list {
        shape {
          dim {
            size: 2
          }
        }
      }
    }
  }
  attr {
    key: "dtype"
    value {
      type: DT_INT32
    }
  }
  attr {
    key: "value"
    value {
      tensor {
        dtype: DT_INT32
        tensor_shape {
          dim {
            size: 2
          }
        }
        tensor_content: "\377\377\377\377\001\000\000\000"
      }
    }
  }
}
node {
  name: "dnn/input_from_feature_columns/input_layer/Cabin_embedding/Cabin_embedding_weights/Reshape_1"
  op: "Reshape"
  input: "dnn/input_from_feature_columns/input_layer/Cabin_embedding/Cabin_embedding_weights/SparseFillEmptyRows/SparseFillEmptyRows:2"
  input: "dnn/input_from_feature_columns/input_layer/Cabin_embedding/Cabin_embedding_weights/Reshape_1/shape"
  attr {
    key: "T"
    value {
      type: DT_BOOL
    }
  }
  attr {
    key: "Tshape"
    value {
      type: DT_INT32
    }
  }
  attr {
    key: "_output_shapes"
    value {
      list {
        shape {
          dim {
            size: -1
          }
          dim {
            size: 1
          }
        }
      }
    }
  }
}
node {
  name: "dnn/input_from_feature_columns/input_layer/Cabin_embedding/Cabin_embedding_weights/Shape"
  op: "Shape"
  input: "dnn/input_from_feature_columns/input_layer/Cabin_embedding/Cabin_embedding_weights/embedding_lookup_sparse"
  attr {
    key: "T"
    value {
      type: DT_FLOAT
    }
  }
  attr {
    key: "_output_shapes"
    value {
      list {
        shape {
          dim {
            size: 2
          }
        }
      }
    }
  }
  attr {
    key: "out_type"
    value {
      type: DT_INT32
    }
  }
}
node {
  name: "dnn/input_from_feature_columns/input_layer/Cabin_embedding/Cabin_embedding_weights/strided_slice/stack"
  op: "Const"
  attr {
    key: "_output_shapes"
    value {
      list {
        shape {
          dim {
            size: 1
          }
        }
      }
    }
  }
  attr {
    key: "dtype"
    value {
      type: DT_INT32
    }
  }
  attr {
    key: "value"
    value {
      tensor {
        dtype: DT_INT32
        tensor_shape {
          dim {
            size: 1
          }
        }
        int_val: 1
      }
    }
  }
}
node {
  name: "dnn/input_from_feature_columns/input_layer/Cabin_embedding/Cabin_embedding_weights/strided_slice/stack_1"
  op: "Const"
  attr {
    key: "_output_shapes"
    value {
      list {
        shape {
          dim {
            size: 1
          }
        }
      }
    }
  }
  attr {
    key: "dtype"
    value {
      type: DT_INT32
    }
  }
  attr {
    key: "value"
    value {
      tensor {
        dtype: DT_INT32
        tensor_shape {
          dim {
            size: 1
          }
        }
        int_val: 2
      }
    }
  }
}
node {
  name: "dnn/input_from_feature_columns/input_layer/Cabin_embedding/Cabin_embedding_weights/strided_slice/stack_2"
  op: "Const"
  attr {
    key: "_output_shapes"
    value {
      list {
        shape {
          dim {
            size: 1
          }
        }
      }
    }
  }
  attr {
    key: "dtype"
    value {
      type: DT_INT32
    }
  }
  attr {
    key: "value"
    value {
      tensor {
        dtype: DT_INT32
        tensor_shape {
          dim {
            size: 1
          }
        }
        int_val: 1
      }
    }
  }
}
node {
  name: "dnn/input_from_feature_columns/input_layer/Cabin_embedding/Cabin_embedding_weights/strided_slice"
  op: "StridedSlice"
  input: "dnn/input_from_feature_columns/input_layer/Cabin_embedding/Cabin_embedding_weights/Shape"
  input: "dnn/input_from_feature_columns/input_layer/Cabin_embedding/Cabin_embedding_weights/strided_slice/stack"
  input: "dnn/input_from_feature_columns/input_layer/Cabin_embedding/Cabin_embedding_weights/strided_slice/stack_1"
  input: "dnn/input_from_feature_columns/input_layer/Cabin_embedding/Cabin_embedding_weights/strided_slice/stack_2"
  attr {
    key: "Index"
    value {
      type: DT_INT32
    }
  }
  attr {
    key: "T"
    value {
      type: DT_INT32
    }
  }
  attr {
    key: "_output_shapes"
    value {
      list {
        shape {
        }
      }
    }
  }
  attr {
    key: "begin_mask"
    value {
      i: 0
    }
  }
  attr {
    key: "ellipsis_mask"
    value {
      i: 0
    }
  }
  attr {
    key: "end_mask"
    value {
      i: 0
    }
  }
  attr {
    key: "new_axis_mask"
    value {
      i: 0
    }
  }
  attr {
    key: "shrink_axis_mask"
    value {
      i: 1
    }
  }
}
node {
  name: "dnn/input_from_feature_columns/input_layer/Cabin_embedding/Cabin_embedding_weights/stack/0"
  op: "Const"
  attr {
    key: "_output_shapes"
    value {
      list {
        shape {
        }
      }
    }
  }
  attr {
    key: "dtype"
    value {
      type: DT_INT32
    }
  }
  attr {
    key: "value"
    value {
      tensor {
        dtype: DT_INT32
        tensor_shape {
        }
        int_val: 1
      }
    }
  }
}
node {
  name: "dnn/input_from_feature_columns/input_layer/Cabin_embedding/Cabin_embedding_weights/stack"
  op: "Pack"
  input: "dnn/input_from_feature_columns/input_layer/Cabin_embedding/Cabin_embedding_weights/stack/0"
  input: "dnn/input_from_feature_columns/input_layer/Cabin_embedding/Cabin_embedding_weights/strided_slice"
  attr {
    key: "N"
    value {
      i: 2
    }
  }
  attr {
    key: "T"
    value {
      type: DT_INT32
    }
  }
  attr {
    key: "_output_shapes"
    value {
      list {
        shape {
          dim {
            size: 2
          }
        }
      }
    }
  }
  attr {
    key: "axis"
    value {
      i: 0
    }
  }
}
node {
  name: "dnn/input_from_feature_columns/input_layer/Cabin_embedding/Cabin_embedding_weights/Tile"
  op: "Tile"
  input: "dnn/input_from_feature_columns/input_layer/Cabin_embedding/Cabin_embedding_weights/Reshape_1"
  input: "dnn/input_from_feature_columns/input_layer/Cabin_embedding/Cabin_embedding_weights/stack"
  attr {
    key: "T"
    value {
      type: DT_BOOL
    }
  }
  attr {
    key: "Tmultiples"
    value {
      type: DT_INT32
    }
  }
  attr {
    key: "_output_shapes"
    value {
      list {
        shape {
          dim {
            size: -1
          }
          dim {
            size: -1
          }
        }
      }
    }
  }
}
node {
  name: "dnn/input_from_feature_columns/input_layer/Cabin_embedding/Cabin_embedding_weights/zeros_like"
  op: "ZerosLike"
  input: "dnn/input_from_feature_columns/input_layer/Cabin_embedding/Cabin_embedding_weights/embedding_lookup_sparse"
  attr {
    key: "T"
    value {
      type: DT_FLOAT
    }
  }
  attr {
    key: "_output_shapes"
    value {
      list {
        shape {
          dim {
            size: -1
          }
          dim {
            size: 3
          }
        }
      }
    }
  }
}
node {
  name: "dnn/input_from_feature_columns/input_layer/Cabin_embedding/Cabin_embedding_weights"
  op: "Select"
  input: "dnn/input_from_feature_columns/input_layer/Cabin_embedding/Cabin_embedding_weights/Tile"
  input: "dnn/input_from_feature_columns/input_layer/Cabin_embedding/Cabin_embedding_weights/zeros_like"
  input: "dnn/input_from_feature_columns/input_layer/Cabin_embedding/Cabin_embedding_weights/embedding_lookup_sparse"
  attr {
    key: "T"
    value {
      type: DT_FLOAT
    }
  }
  attr {
    key: "_output_shapes"
    value {
      list {
        shape {
          dim {
            size: -1
          }
          dim {
            size: 3
          }
        }
      }
    }
  }
}
node {
  name: "dnn/input_from_feature_columns/input_layer/Cabin_embedding/Cabin_embedding_weights/Cast_1"
  op: "Cast"
  input: "dnn/input_from_feature_columns/input_layer/Cabin_embedding/to_sparse_input/dense_shape"
  attr {
    key: "DstT"
    value {
      type: DT_INT32
    }
  }
  attr {
    key: "SrcT"
    value {
      type: DT_INT64
    }
  }
  attr {
    key: "_output_shapes"
    value {
      list {
        shape {
          dim {
            size: 2
          }
        }
      }
    }
  }
}
node {
  name: "dnn/input_from_feature_columns/input_layer/Cabin_embedding/Cabin_embedding_weights/Slice_1/begin"
  op: "Const"
  attr {
    key: "_output_shapes"
    value {
      list {
        shape {
          dim {
            size: 1
          }
        }
      }
    }
  }
  attr {
    key: "dtype"
    value {
      type: DT_INT32
    }
  }
  attr {
    key: "value"
    value {
      tensor {
        dtype: DT_INT32
        tensor_shape {
          dim {
            size: 1
          }
        }
        int_val: 0
      }
    }
  }
}
node {
  name: "dnn/input_from_feature_columns/input_layer/Cabin_embedding/Cabin_embedding_weights/Slice_1/size"
  op: "Const"
  attr {
    key: "_output_shapes"
    value {
      list {
        shape {
          dim {
            size: 1
          }
        }
      }
    }
  }
  attr {
    key: "dtype"
    value {
      type: DT_INT32
    }
  }
  attr {
    key: "value"
    value {
      tensor {
        dtype: DT_INT32
        tensor_shape {
          dim {
            size: 1
          }
        }
        int_val: 1
      }
    }
  }
}
node {
  name: "dnn/input_from_feature_columns/input_layer/Cabin_embedding/Cabin_embedding_weights/Slice_1"
  op: "Slice"
  input: "dnn/input_from_feature_columns/input_layer/Cabin_embedding/Cabin_embedding_weights/Cast_1"
  input: "dnn/input_from_feature_columns/input_layer/Cabin_embedding/Cabin_embedding_weights/Slice_1/begin"
  input: "dnn/input_from_feature_columns/input_layer/Cabin_embedding/Cabin_embedding_weights/Slice_1/size"
  attr {
    key: "Index"
    value {
      type: DT_INT32
    }
  }
  attr {
    key: "T"
    value {
      type: DT_INT32
    }
  }
  attr {
    key: "_output_shapes"
    value {
      list {
        shape {
          dim {
            size: 1
          }
        }
      }
    }
  }
}
node {
  name: "dnn/input_from_feature_columns/input_layer/Cabin_embedding/Cabin_embedding_weights/Shape_1"
  op: "Shape"
  input: "dnn/input_from_feature_columns/input_layer/Cabin_embedding/Cabin_embedding_weights"
  attr {
    key: "T"
    value {
      type: DT_FLOAT
    }
  }
  attr {
    key: "_output_shapes"
    value {
      list {
        shape {
          dim {
            size: 2
          }
        }
      }
    }
  }
  attr {
    key: "out_type"
    value {
      type: DT_INT32
    }
  }
}
node {
  name: "dnn/input_from_feature_columns/input_layer/Cabin_embedding/Cabin_embedding_weights/Slice_2/begin"
  op: "Const"
  attr {
    key: "_output_shapes"
    value {
      list {
        shape {
          dim {
            size: 1
          }
        }
      }
    }
  }
  attr {
    key: "dtype"
    value {
      type: DT_INT32
    }
  }
  attr {
    key: "value"
    value {
      tensor {
        dtype: DT_INT32
        tensor_shape {
          dim {
            size: 1
          }
        }
        int_val: 1
      }
    }
  }
}
node {
  name: "dnn/input_from_feature_columns/input_layer/Cabin_embedding/Cabin_embedding_weights/Slice_2/size"
  op: "Const"
  attr {
    key: "_output_shapes"
    value {
      list {
        shape {
          dim {
            size: 1
          }
        }
      }
    }
  }
  attr {
    key: "dtype"
    value {
      type: DT_INT32
    }
  }
  attr {
    key: "value"
    value {
      tensor {
        dtype: DT_INT32
        tensor_shape {
          dim {
            size: 1
          }
        }
        int_val: -1
      }
    }
  }
}
node {
  name: "dnn/input_from_feature_columns/input_layer/Cabin_embedding/Cabin_embedding_weights/Slice_2"
  op: "Slice"
  input: "dnn/input_from_feature_columns/input_layer/Cabin_embedding/Cabin_embedding_weights/Shape_1"
  input: "dnn/input_from_feature_columns/input_layer/Cabin_embedding/Cabin_embedding_weights/Slice_2/begin"
  input: "dnn/input_from_feature_columns/input_layer/Cabin_embedding/Cabin_embedding_weights/Slice_2/size"
  attr {
    key: "Index"
    value {
      type: DT_INT32
    }
  }
  attr {
    key: "T"
    value {
      type: DT_INT32
    }
  }
  attr {
    key: "_output_shapes"
    value {
      list {
        shape {
          dim {
            size: 1
          }
        }
      }
    }
  }
}
node {
  name: "dnn/input_from_feature_columns/input_layer/Cabin_embedding/Cabin_embedding_weights/concat/axis"
  op: "Const"
  attr {
    key: "_output_shapes"
    value {
      list {
        shape {
        }
      }
    }
  }
  attr {
    key: "dtype"
    value {
      type: DT_INT32
    }
  }
  attr {
    key: "value"
    value {
      tensor {
        dtype: DT_INT32
        tensor_shape {
        }
        int_val: 0
      }
    }
  }
}
node {
  name: "dnn/input_from_feature_columns/input_layer/Cabin_embedding/Cabin_embedding_weights/concat"
  op: "ConcatV2"
  input: "dnn/input_from_feature_columns/input_layer/Cabin_embedding/Cabin_embedding_weights/Slice_1"
  input: "dnn/input_from_feature_columns/input_layer/Cabin_embedding/Cabin_embedding_weights/Slice_2"
  input: "dnn/input_from_feature_columns/input_layer/Cabin_embedding/Cabin_embedding_weights/concat/axis"
  attr {
    key: "N"
    value {
      i: 2
    }
  }
  attr {
    key: "T"
    value {
      type: DT_INT32
    }
  }
  attr {
    key: "Tidx"
    value {
      type: DT_INT32
    }
  }
  attr {
    key: "_output_shapes"
    value {
      list {
        shape {
          dim {
            size: 2
          }
        }
      }
    }
  }
}
node {
  name: "dnn/input_from_feature_columns/input_layer/Cabin_embedding/Cabin_embedding_weights/Reshape_2"
  op: "Reshape"
  input: "dnn/input_from_feature_columns/input_layer/Cabin_embedding/Cabin_embedding_weights"
  input: "dnn/input_from_feature_columns/input_layer/Cabin_embedding/Cabin_embedding_weights/concat"
  attr {
    key: "T"
    value {
      type: DT_FLOAT
    }
  }
  attr {
    key: "Tshape"
    value {
      type: DT_INT32
    }
  }
  attr {
    key: "_output_shapes"
    value {
      list {
        shape {
          dim {
            size: -1
          }
          dim {
            size: 3
          }
        }
      }
    }
  }
}
node {
  name: "dnn/input_from_feature_columns/input_layer/Cabin_embedding/Shape"
  op: "Shape"
  input: "dnn/input_from_feature_columns/input_layer/Cabin_embedding/Cabin_embedding_weights/Reshape_2"
  attr {
    key: "T"
    value {
      type: DT_FLOAT
    }
  }
  attr {
    key: "_output_shapes"
    value {
      list {
        shape {
          dim {
            size: 2
          }
        }
      }
    }
  }
  attr {
    key: "out_type"
    value {
      type: DT_INT32
    }
  }
}
node {
  name: "dnn/input_from_feature_columns/input_layer/Cabin_embedding/strided_slice/stack"
  op: "Const"
  attr {
    key: "_output_shapes"
    value {
      list {
        shape {
          dim {
            size: 1
          }
        }
      }
    }
  }
  attr {
    key: "dtype"
    value {
      type: DT_INT32
    }
  }
  attr {
    key: "value"
    value {
      tensor {
        dtype: DT_INT32
        tensor_shape {
          dim {
            size: 1
          }
        }
        int_val: 0
      }
    }
  }
}
node {
  name: "dnn/input_from_feature_columns/input_layer/Cabin_embedding/strided_slice/stack_1"
  op: "Const"
  attr {
    key: "_output_shapes"
    value {
      list {
        shape {
          dim {
            size: 1
          }
        }
      }
    }
  }
  attr {
    key: "dtype"
    value {
      type: DT_INT32
    }
  }
  attr {
    key: "value"
    value {
      tensor {
        dtype: DT_INT32
        tensor_shape {
          dim {
            size: 1
          }
        }
        int_val: 1
      }
    }
  }
}
node {
  name: "dnn/input_from_feature_columns/input_layer/Cabin_embedding/strided_slice/stack_2"
  op: "Const"
  attr {
    key: "_output_shapes"
    value {
      list {
        shape {
          dim {
            size: 1
          }
        }
      }
    }
  }
  attr {
    key: "dtype"
    value {
      type: DT_INT32
    }
  }
  attr {
    key: "value"
    value {
      tensor {
        dtype: DT_INT32
        tensor_shape {
          dim {
            size: 1
          }
        }
        int_val: 1
      }
    }
  }
}
node {
  name: "dnn/input_from_feature_columns/input_layer/Cabin_embedding/strided_slice"
  op: "StridedSlice"
  input: "dnn/input_from_feature_columns/input_layer/Cabin_embedding/Shape"
  input: "dnn/input_from_feature_columns/input_layer/Cabin_embedding/strided_slice/stack"
  input: "dnn/input_from_feature_columns/input_layer/Cabin_embedding/strided_slice/stack_1"
  input: "dnn/input_from_feature_columns/input_layer/Cabin_embedding/strided_slice/stack_2"
  attr {
    key: "Index"
    value {
      type: DT_INT32
    }
  }
  attr {
    key: "T"
    value {
      type: DT_INT32
    }
  }
  attr {
    key: "_output_shapes"
    value {
      list {
        shape {
        }
      }
    }
  }
  attr {
    key: "begin_mask"
    value {
      i: 0
    }
  }
  attr {
    key: "ellipsis_mask"
    value {
      i: 0
    }
  }
  attr {
    key: "end_mask"
    value {
      i: 0
    }
  }
  attr {
    key: "new_axis_mask"
    value {
      i: 0
    }
  }
  attr {
    key: "shrink_axis_mask"
    value {
      i: 1
    }
  }
}
node {
  name: "dnn/input_from_feature_columns/input_layer/Cabin_embedding/Reshape/shape/1"
  op: "Const"
  attr {
    key: "_output_shapes"
    value {
      list {
        shape {
        }
      }
    }
  }
  attr {
    key: "dtype"
    value {
      type: DT_INT32
    }
  }
  attr {
    key: "value"
    value {
      tensor {
        dtype: DT_INT32
        tensor_shape {
        }
        int_val: 3
      }
    }
  }
}
node {
  name: "dnn/input_from_feature_columns/input_layer/Cabin_embedding/Reshape/shape"
  op: "Pack"
  input: "dnn/input_from_feature_columns/input_layer/Cabin_embedding/strided_slice"
  input: "dnn/input_from_feature_columns/input_layer/Cabin_embedding/Reshape/shape/1"
  attr {
    key: "N"
    value {
      i: 2
    }
  }
  attr {
    key: "T"
    value {
      type: DT_INT32
    }
  }
  attr {
    key: "_output_shapes"
    value {
      list {
        shape {
          dim {
            size: 2
          }
        }
      }
    }
  }
  attr {
    key: "axis"
    value {
      i: 0
    }
  }
}
node {
  name: "dnn/input_from_feature_columns/input_layer/Cabin_embedding/Reshape"
  op: "Reshape"
  input: "dnn/input_from_feature_columns/input_layer/Cabin_embedding/Cabin_embedding_weights/Reshape_2"
  input: "dnn/input_from_feature_columns/input_layer/Cabin_embedding/Reshape/shape"
  attr {
    key: "T"
    value {
      type: DT_FLOAT
    }
  }
  attr {
    key: "Tshape"
    value {
      type: DT_INT32
    }
  }
  attr {
    key: "_output_shapes"
    value {
      list {
        shape {
          dim {
            size: -1
          }
          dim {
            size: 3
          }
        }
      }
    }
  }
}
node {
  name: "dnn/input_from_feature_columns/input_layer/Embarked_indicator/ExpandDims/dim"
  op: "Const"
  attr {
    key: "_output_shapes"
    value {
      list {
        shape {
        }
      }
    }
  }
  attr {
    key: "dtype"
    value {
      type: DT_INT32
    }
  }
  attr {
    key: "value"
    value {
      tensor {
        dtype: DT_INT32
        tensor_shape {
        }
        int_val: -1
      }
    }
  }
}
node {
  name: "dnn/input_from_feature_columns/input_layer/Embarked_indicator/ExpandDims"
  op: "ExpandDims"
  input: "random_shuffle_queue_DequeueUpTo:7"
  input: "dnn/input_from_feature_columns/input_layer/Embarked_indicator/ExpandDims/dim"
  attr {
    key: "T"
    value {
      type: DT_STRING
    }
  }
  attr {
    key: "Tdim"
    value {
      type: DT_INT32
    }
  }
  attr {
    key: "_output_shapes"
    value {
      list {
        shape {
          dim {
            size: -1
          }
          dim {
            size: 1
          }
        }
      }
    }
  }
}
node {
  name: "dnn/input_from_feature_columns/input_layer/Embarked_indicator/to_sparse_input/ignore_value/x"
  op: "Const"
  attr {
    key: "_output_shapes"
    value {
      list {
        shape {
        }
      }
    }
  }
  attr {
    key: "dtype"
    value {
      type: DT_STRING
    }
  }
  attr {
    key: "value"
    value {
      tensor {
        dtype: DT_STRING
        tensor_shape {
        }
        string_val: ""
      }
    }
  }
}
node {
  name: "dnn/input_from_feature_columns/input_layer/Embarked_indicator/to_sparse_input/NotEqual"
  op: "NotEqual"
  input: "dnn/input_from_feature_columns/input_layer/Embarked_indicator/ExpandDims"
  input: "dnn/input_from_feature_columns/input_layer/Embarked_indicator/to_sparse_input/ignore_value/x"
  attr {
    key: "T"
    value {
      type: DT_STRING
    }
  }
  attr {
    key: "_output_shapes"
    value {
      list {
        shape {
          dim {
            size: -1
          }
          dim {
            size: 1
          }
        }
      }
    }
  }
}
node {
  name: "dnn/input_from_feature_columns/input_layer/Embarked_indicator/to_sparse_input/indices"
  op: "Where"
  input: "dnn/input_from_feature_columns/input_layer/Embarked_indicator/to_sparse_input/NotEqual"
  attr {
    key: "T"
    value {
      type: DT_BOOL
    }
  }
  attr {
    key: "_output_shapes"
    value {
      list {
        shape {
          dim {
            size: -1
          }
          dim {
            size: 2
          }
        }
      }
    }
  }
}
node {
  name: "dnn/input_from_feature_columns/input_layer/Embarked_indicator/to_sparse_input/values"
  op: "GatherNd"
  input: "dnn/input_from_feature_columns/input_layer/Embarked_indicator/ExpandDims"
  input: "dnn/input_from_feature_columns/input_layer/Embarked_indicator/to_sparse_input/indices"
  attr {
    key: "Tindices"
    value {
      type: DT_INT64
    }
  }
  attr {
    key: "Tparams"
    value {
      type: DT_STRING
    }
  }
  attr {
    key: "_output_shapes"
    value {
      list {
        shape {
          dim {
            size: -1
          }
        }
      }
    }
  }
}
node {
  name: "dnn/input_from_feature_columns/input_layer/Embarked_indicator/to_sparse_input/dense_shape"
  op: "Shape"
  input: "dnn/input_from_feature_columns/input_layer/Embarked_indicator/ExpandDims"
  attr {
    key: "T"
    value {
      type: DT_STRING
    }
  }
  attr {
    key: "_output_shapes"
    value {
      list {
        shape {
          dim {
            size: 2
          }
        }
      }
    }
  }
  attr {
    key: "out_type"
    value {
      type: DT_INT64
    }
  }
}
node {
  name: "dnn/input_from_feature_columns/input_layer/Embarked_indicator/Embarked_lookup/Const"
  op: "Const"
  attr {
    key: "_output_shapes"
    value {
      list {
        shape {
          dim {
            size: 3
          }
        }
      }
    }
  }
  attr {
    key: "dtype"
    value {
      type: DT_STRING
    }
  }
  attr {
    key: "value"
    value {
      tensor {
        dtype: DT_STRING
        tensor_shape {
          dim {
            size: 3
          }
        }
        string_val: "C"
        string_val: "Q"
        string_val: "S"
      }
    }
  }
}
node {
  name: "dnn/input_from_feature_columns/input_layer/Embarked_indicator/Embarked_lookup/Size"
  op: "Const"
  attr {
    key: "_output_shapes"
    value {
      list {
        shape {
        }
      }
    }
  }
  attr {
    key: "dtype"
    value {
      type: DT_INT32
    }
  }
  attr {
    key: "value"
    value {
      tensor {
        dtype: DT_INT32
        tensor_shape {
        }
        int_val: 3
      }
    }
  }
}
node {
  name: "dnn/input_from_feature_columns/input_layer/Embarked_indicator/Embarked_lookup/range/start"
  op: "Const"
  attr {
    key: "_output_shapes"
    value {
      list {
        shape {
        }
      }
    }
  }
  attr {
    key: "dtype"
    value {
      type: DT_INT32
    }
  }
  attr {
    key: "value"
    value {
      tensor {
        dtype: DT_INT32
        tensor_shape {
        }
        int_val: 0
      }
    }
  }
}
node {
  name: "dnn/input_from_feature_columns/input_layer/Embarked_indicator/Embarked_lookup/range/delta"
  op: "Const"
  attr {
    key: "_output_shapes"
    value {
      list {
        shape {
        }
      }
    }
  }
  attr {
    key: "dtype"
    value {
      type: DT_INT32
    }
  }
  attr {
    key: "value"
    value {
      tensor {
        dtype: DT_INT32
        tensor_shape {
        }
        int_val: 1
      }
    }
  }
}
node {
  name: "dnn/input_from_feature_columns/input_layer/Embarked_indicator/Embarked_lookup/range"
  op: "Range"
  input: "dnn/input_from_feature_columns/input_layer/Embarked_indicator/Embarked_lookup/range/start"
  input: "dnn/input_from_feature_columns/input_layer/Embarked_indicator/Embarked_lookup/Size"
  input: "dnn/input_from_feature_columns/input_layer/Embarked_indicator/Embarked_lookup/range/delta"
  attr {
    key: "Tidx"
    value {
      type: DT_INT32
    }
  }
  attr {
    key: "_output_shapes"
    value {
      list {
        shape {
          dim {
            size: 3
          }
        }
      }
    }
  }
}
node {
  name: "dnn/input_from_feature_columns/input_layer/Embarked_indicator/Embarked_lookup/ToInt64"
  op: "Cast"
  input: "dnn/input_from_feature_columns/input_layer/Embarked_indicator/Embarked_lookup/range"
  attr {
    key: "DstT"
    value {
      type: DT_INT64
    }
  }
  attr {
    key: "SrcT"
    value {
      type: DT_INT32
    }
  }
  attr {
    key: "_output_shapes"
    value {
      list {
        shape {
          dim {
            size: 3
          }
        }
      }
    }
  }
}
node {
  name: "dnn/input_from_feature_columns/input_layer/Embarked_indicator/Embarked_lookup/hash_table"
  op: "HashTableV2"
  attr {
    key: "_output_shapes"
    value {
      list {
        shape {
        }
      }
    }
  }
  attr {
    key: "container"
    value {
      s: ""
    }
  }
  attr {
    key: "key_dtype"
    value {
      type: DT_STRING
    }
  }
  attr {
    key: "shared_name"
    value {
      s: ""
    }
  }
  attr {
    key: "use_node_name_sharing"
    value {
      b: false
    }
  }
  attr {
    key: "value_dtype"
    value {
      type: DT_INT64
    }
  }
}
node {
  name: "dnn/input_from_feature_columns/input_layer/Embarked_indicator/Embarked_lookup/hash_table/Const"
  op: "Const"
  attr {
    key: "_output_shapes"
    value {
      list {
        shape {
        }
      }
    }
  }
  attr {
    key: "dtype"
    value {
      type: DT_INT64
    }
  }
  attr {
    key: "value"
    value {
      tensor {
        dtype: DT_INT64
        tensor_shape {
        }
        int64_val: -1
      }
    }
  }
}
node {
  name: "dnn/input_from_feature_columns/input_layer/Embarked_indicator/Embarked_lookup/hash_table/table_init"
  op: "InitializeTableV2"
  input: "dnn/input_from_feature_columns/input_layer/Embarked_indicator/Embarked_lookup/hash_table"
  input: "dnn/input_from_feature_columns/input_layer/Embarked_indicator/Embarked_lookup/Const"
  input: "dnn/input_from_feature_columns/input_layer/Embarked_indicator/Embarked_lookup/ToInt64"
  attr {
    key: "Tkey"
    value {
      type: DT_STRING
    }
  }
  attr {
    key: "Tval"
    value {
      type: DT_INT64
    }
  }
}
node {
  name: "dnn/input_from_feature_columns/input_layer/Embarked_indicator/hash_table_Lookup"
  op: "LookupTableFindV2"
  input: "dnn/input_from_feature_columns/input_layer/Embarked_indicator/Embarked_lookup/hash_table"
  input: "dnn/input_from_feature_columns/input_layer/Embarked_indicator/to_sparse_input/values"
  input: "dnn/input_from_feature_columns/input_layer/Embarked_indicator/Embarked_lookup/hash_table/Const"
  attr {
    key: "Tin"
    value {
      type: DT_STRING
    }
  }
  attr {
    key: "Tout"
    value {
      type: DT_INT64
    }
  }
  attr {
    key: "_output_shapes"
    value {
      list {
        shape {
          dim {
            size: -1
          }
        }
      }
    }
  }
}
node {
  name: "dnn/input_from_feature_columns/input_layer/Embarked_indicator/SparseToDense/default_value"
  op: "Const"
  attr {
    key: "_output_shapes"
    value {
      list {
        shape {
        }
      }
    }
  }
  attr {
    key: "dtype"
    value {
      type: DT_INT64
    }
  }
  attr {
    key: "value"
    value {
      tensor {
        dtype: DT_INT64
        tensor_shape {
        }
        int64_val: -1
      }
    }
  }
}
node {
  name: "dnn/input_from_feature_columns/input_layer/Embarked_indicator/SparseToDense"
  op: "SparseToDense"
  input: "dnn/input_from_feature_columns/input_layer/Embarked_indicator/to_sparse_input/indices"
  input: "dnn/input_from_feature_columns/input_layer/Embarked_indicator/to_sparse_input/dense_shape"
  input: "dnn/input_from_feature_columns/input_layer/Embarked_indicator/hash_table_Lookup"
  input: "dnn/input_from_feature_columns/input_layer/Embarked_indicator/SparseToDense/default_value"
  attr {
    key: "T"
    value {
      type: DT_INT64
    }
  }
  attr {
    key: "Tindices"
    value {
      type: DT_INT64
    }
  }
  attr {
    key: "_output_shapes"
    value {
      list {
        shape {
          dim {
            size: -1
          }
          dim {
            size: 1
          }
        }
      }
    }
  }
  attr {
    key: "validate_indices"
    value {
      b: true
    }
  }
}
node {
  name: "dnn/input_from_feature_columns/input_layer/Embarked_indicator/one_hot/Const"
  op: "Const"
  attr {
    key: "_output_shapes"
    value {
      list {
        shape {
        }
      }
    }
  }
  attr {
    key: "dtype"
    value {
      type: DT_FLOAT
    }
  }
  attr {
    key: "value"
    value {
      tensor {
        dtype: DT_FLOAT
        tensor_shape {
        }
        float_val: 1.0
      }
    }
  }
}
node {
  name: "dnn/input_from_feature_columns/input_layer/Embarked_indicator/one_hot/Const_1"
  op: "Const"
  attr {
    key: "_output_shapes"
    value {
      list {
        shape {
        }
      }
    }
  }
  attr {
    key: "dtype"
    value {
      type: DT_FLOAT
    }
  }
  attr {
    key: "value"
    value {
      tensor {
        dtype: DT_FLOAT
        tensor_shape {
        }
        float_val: 0.0
      }
    }
  }
}
node {
  name: "dnn/input_from_feature_columns/input_layer/Embarked_indicator/one_hot/depth"
  op: "Const"
  attr {
    key: "_output_shapes"
    value {
      list {
        shape {
        }
      }
    }
  }
  attr {
    key: "dtype"
    value {
      type: DT_INT32
    }
  }
  attr {
    key: "value"
    value {
      tensor {
        dtype: DT_INT32
        tensor_shape {
        }
        int_val: 3
      }
    }
  }
}
node {
  name: "dnn/input_from_feature_columns/input_layer/Embarked_indicator/one_hot/on_value"
  op: "Const"
  attr {
    key: "_output_shapes"
    value {
      list {
        shape {
        }
      }
    }
  }
  attr {
    key: "dtype"
    value {
      type: DT_FLOAT
    }
  }
  attr {
    key: "value"
    value {
      tensor {
        dtype: DT_FLOAT
        tensor_shape {
        }
        float_val: 1.0
      }
    }
  }
}
node {
  name: "dnn/input_from_feature_columns/input_layer/Embarked_indicator/one_hot/off_value"
  op: "Const"
  attr {
    key: "_output_shapes"
    value {
      list {
        shape {
        }
      }
    }
  }
  attr {
    key: "dtype"
    value {
      type: DT_FLOAT
    }
  }
  attr {
    key: "value"
    value {
      tensor {
        dtype: DT_FLOAT
        tensor_shape {
        }
        float_val: 0.0
      }
    }
  }
}
node {
  name: "dnn/input_from_feature_columns/input_layer/Embarked_indicator/one_hot"
  op: "OneHot"
  input: "dnn/input_from_feature_columns/input_layer/Embarked_indicator/SparseToDense"
  input: "dnn/input_from_feature_columns/input_layer/Embarked_indicator/one_hot/depth"
  input: "dnn/input_from_feature_columns/input_layer/Embarked_indicator/one_hot/on_value"
  input: "dnn/input_from_feature_columns/input_layer/Embarked_indicator/one_hot/off_value"
  attr {
    key: "T"
    value {
      type: DT_FLOAT
    }
  }
  attr {
    key: "TI"
    value {
      type: DT_INT64
    }
  }
  attr {
    key: "_output_shapes"
    value {
      list {
        shape {
          dim {
            size: -1
          }
          dim {
            size: 1
          }
          dim {
            size: 3
          }
        }
      }
    }
  }
  attr {
    key: "axis"
    value {
      i: -1
    }
  }
}
node {
  name: "dnn/input_from_feature_columns/input_layer/Embarked_indicator/Sum/reduction_indices"
  op: "Const"
  attr {
    key: "_output_shapes"
    value {
      list {
        shape {
          dim {
            size: 1
          }
        }
      }
    }
  }
  attr {
    key: "dtype"
    value {
      type: DT_INT32
    }
  }
  attr {
    key: "value"
    value {
      tensor {
        dtype: DT_INT32
        tensor_shape {
          dim {
            size: 1
          }
        }
        int_val: -2
      }
    }
  }
}
node {
  name: "dnn/input_from_feature_columns/input_layer/Embarked_indicator/Sum"
  op: "Sum"
  input: "dnn/input_from_feature_columns/input_layer/Embarked_indicator/one_hot"
  input: "dnn/input_from_feature_columns/input_layer/Embarked_indicator/Sum/reduction_indices"
  attr {
    key: "T"
    value {
      type: DT_FLOAT
    }
  }
  attr {
    key: "Tidx"
    value {
      type: DT_INT32
    }
  }
  attr {
    key: "_output_shapes"
    value {
      list {
        shape {
          dim {
            size: -1
          }
          dim {
            size: 3
          }
        }
      }
    }
  }
  attr {
    key: "keep_dims"
    value {
      b: false
    }
  }
}
node {
  name: "dnn/input_from_feature_columns/input_layer/Embarked_indicator/Shape"
  op: "Shape"
  input: "dnn/input_from_feature_columns/input_layer/Embarked_indicator/Sum"
  attr {
    key: "T"
    value {
      type: DT_FLOAT
    }
  }
  attr {
    key: "_output_shapes"
    value {
      list {
        shape {
          dim {
            size: 2
          }
        }
      }
    }
  }
  attr {
    key: "out_type"
    value {
      type: DT_INT32
    }
  }
}
node {
  name: "dnn/input_from_feature_columns/input_layer/Embarked_indicator/strided_slice/stack"
  op: "Const"
  attr {
    key: "_output_shapes"
    value {
      list {
        shape {
          dim {
            size: 1
          }
        }
      }
    }
  }
  attr {
    key: "dtype"
    value {
      type: DT_INT32
    }
  }
  attr {
    key: "value"
    value {
      tensor {
        dtype: DT_INT32
        tensor_shape {
          dim {
            size: 1
          }
        }
        int_val: 0
      }
    }
  }
}
node {
  name: "dnn/input_from_feature_columns/input_layer/Embarked_indicator/strided_slice/stack_1"
  op: "Const"
  attr {
    key: "_output_shapes"
    value {
      list {
        shape {
          dim {
            size: 1
          }
        }
      }
    }
  }
  attr {
    key: "dtype"
    value {
      type: DT_INT32
    }
  }
  attr {
    key: "value"
    value {
      tensor {
        dtype: DT_INT32
        tensor_shape {
          dim {
            size: 1
          }
        }
        int_val: 1
      }
    }
  }
}
node {
  name: "dnn/input_from_feature_columns/input_layer/Embarked_indicator/strided_slice/stack_2"
  op: "Const"
  attr {
    key: "_output_shapes"
    value {
      list {
        shape {
          dim {
            size: 1
          }
        }
      }
    }
  }
  attr {
    key: "dtype"
    value {
      type: DT_INT32
    }
  }
  attr {
    key: "value"
    value {
      tensor {
        dtype: DT_INT32
        tensor_shape {
          dim {
            size: 1
          }
        }
        int_val: 1
      }
    }
  }
}
node {
  name: "dnn/input_from_feature_columns/input_layer/Embarked_indicator/strided_slice"
  op: "StridedSlice"
  input: "dnn/input_from_feature_columns/input_layer/Embarked_indicator/Shape"
  input: "dnn/input_from_feature_columns/input_layer/Embarked_indicator/strided_slice/stack"
  input: "dnn/input_from_feature_columns/input_layer/Embarked_indicator/strided_slice/stack_1"
  input: "dnn/input_from_feature_columns/input_layer/Embarked_indicator/strided_slice/stack_2"
  attr {
    key: "Index"
    value {
      type: DT_INT32
    }
  }
  attr {
    key: "T"
    value {
      type: DT_INT32
    }
  }
  attr {
    key: "_output_shapes"
    value {
      list {
        shape {
        }
      }
    }
  }
  attr {
    key: "begin_mask"
    value {
      i: 0
    }
  }
  attr {
    key: "ellipsis_mask"
    value {
      i: 0
    }
  }
  attr {
    key: "end_mask"
    value {
      i: 0
    }
  }
  attr {
    key: "new_axis_mask"
    value {
      i: 0
    }
  }
  attr {
    key: "shrink_axis_mask"
    value {
      i: 1
    }
  }
}
node {
  name: "dnn/input_from_feature_columns/input_layer/Embarked_indicator/Reshape/shape/1"
  op: "Const"
  attr {
    key: "_output_shapes"
    value {
      list {
        shape {
        }
      }
    }
  }
  attr {
    key: "dtype"
    value {
      type: DT_INT32
    }
  }
  attr {
    key: "value"
    value {
      tensor {
        dtype: DT_INT32
        tensor_shape {
        }
        int_val: 3
      }
    }
  }
}
node {
  name: "dnn/input_from_feature_columns/input_layer/Embarked_indicator/Reshape/shape"
  op: "Pack"
  input: "dnn/input_from_feature_columns/input_layer/Embarked_indicator/strided_slice"
  input: "dnn/input_from_feature_columns/input_layer/Embarked_indicator/Reshape/shape/1"
  attr {
    key: "N"
    value {
      i: 2
    }
  }
  attr {
    key: "T"
    value {
      type: DT_INT32
    }
  }
  attr {
    key: "_output_shapes"
    value {
      list {
        shape {
          dim {
            size: 2
          }
        }
      }
    }
  }
  attr {
    key: "axis"
    value {
      i: 0
    }
  }
}
node {
  name: "dnn/input_from_feature_columns/input_layer/Embarked_indicator/Reshape"
  op: "Reshape"
  input: "dnn/input_from_feature_columns/input_layer/Embarked_indicator/Sum"
  input: "dnn/input_from_feature_columns/input_layer/Embarked_indicator/Reshape/shape"
  attr {
    key: "T"
    value {
      type: DT_FLOAT
    }
  }
  attr {
    key: "Tshape"
    value {
      type: DT_INT32
    }
  }
  attr {
    key: "_output_shapes"
    value {
      list {
        shape {
          dim {
            size: -1
          }
          dim {
            size: 3
          }
        }
      }
    }
  }
}
node {
  name: "dnn/input_from_feature_columns/input_layer/Fare/ExpandDims/dim"
  op: "Const"
  attr {
    key: "_output_shapes"
    value {
      list {
        shape {
        }
      }
    }
  }
  attr {
    key: "dtype"
    value {
      type: DT_INT32
    }
  }
  attr {
    key: "value"
    value {
      tensor {
        dtype: DT_INT32
        tensor_shape {
        }
        int_val: -1
      }
    }
  }
}
node {
  name: "dnn/input_from_feature_columns/input_layer/Fare/ExpandDims"
  op: "ExpandDims"
  input: "random_shuffle_queue_DequeueUpTo:6"
  input: "dnn/input_from_feature_columns/input_layer/Fare/ExpandDims/dim"
  attr {
    key: "T"
    value {
      type: DT_DOUBLE
    }
  }
  attr {
    key: "Tdim"
    value {
      type: DT_INT32
    }
  }
  attr {
    key: "_output_shapes"
    value {
      list {
        shape {
          dim {
            size: -1
          }
          dim {
            size: 1
          }
        }
      }
    }
  }
}
node {
  name: "dnn/input_from_feature_columns/input_layer/Fare/ToFloat"
  op: "Cast"
  input: "dnn/input_from_feature_columns/input_layer/Fare/ExpandDims"
  attr {
    key: "DstT"
    value {
      type: DT_FLOAT
    }
  }
  attr {
    key: "SrcT"
    value {
      type: DT_DOUBLE
    }
  }
  attr {
    key: "_output_shapes"
    value {
      list {
        shape {
          dim {
            size: -1
          }
          dim {
            size: 1
          }
        }
      }
    }
  }
}
node {
  name: "dnn/input_from_feature_columns/input_layer/Fare/Shape"
  op: "Shape"
  input: "dnn/input_from_feature_columns/input_layer/Fare/ToFloat"
  attr {
    key: "T"
    value {
      type: DT_FLOAT
    }
  }
  attr {
    key: "_output_shapes"
    value {
      list {
        shape {
          dim {
            size: 2
          }
        }
      }
    }
  }
  attr {
    key: "out_type"
    value {
      type: DT_INT32
    }
  }
}
node {
  name: "dnn/input_from_feature_columns/input_layer/Fare/strided_slice/stack"
  op: "Const"
  attr {
    key: "_output_shapes"
    value {
      list {
        shape {
          dim {
            size: 1
          }
        }
      }
    }
  }
  attr {
    key: "dtype"
    value {
      type: DT_INT32
    }
  }
  attr {
    key: "value"
    value {
      tensor {
        dtype: DT_INT32
        tensor_shape {
          dim {
            size: 1
          }
        }
        int_val: 0
      }
    }
  }
}
node {
  name: "dnn/input_from_feature_columns/input_layer/Fare/strided_slice/stack_1"
  op: "Const"
  attr {
    key: "_output_shapes"
    value {
      list {
        shape {
          dim {
            size: 1
          }
        }
      }
    }
  }
  attr {
    key: "dtype"
    value {
      type: DT_INT32
    }
  }
  attr {
    key: "value"
    value {
      tensor {
        dtype: DT_INT32
        tensor_shape {
          dim {
            size: 1
          }
        }
        int_val: 1
      }
    }
  }
}
node {
  name: "dnn/input_from_feature_columns/input_layer/Fare/strided_slice/stack_2"
  op: "Const"
  attr {
    key: "_output_shapes"
    value {
      list {
        shape {
          dim {
            size: 1
          }
        }
      }
    }
  }
  attr {
    key: "dtype"
    value {
      type: DT_INT32
    }
  }
  attr {
    key: "value"
    value {
      tensor {
        dtype: DT_INT32
        tensor_shape {
          dim {
            size: 1
          }
        }
        int_val: 1
      }
    }
  }
}
node {
  name: "dnn/input_from_feature_columns/input_layer/Fare/strided_slice"
  op: "StridedSlice"
  input: "dnn/input_from_feature_columns/input_layer/Fare/Shape"
  input: "dnn/input_from_feature_columns/input_layer/Fare/strided_slice/stack"
  input: "dnn/input_from_feature_columns/input_layer/Fare/strided_slice/stack_1"
  input: "dnn/input_from_feature_columns/input_layer/Fare/strided_slice/stack_2"
  attr {
    key: "Index"
    value {
      type: DT_INT32
    }
  }
  attr {
    key: "T"
    value {
      type: DT_INT32
    }
  }
  attr {
    key: "_output_shapes"
    value {
      list {
        shape {
        }
      }
    }
  }
  attr {
    key: "begin_mask"
    value {
      i: 0
    }
  }
  attr {
    key: "ellipsis_mask"
    value {
      i: 0
    }
  }
  attr {
    key: "end_mask"
    value {
      i: 0
    }
  }
  attr {
    key: "new_axis_mask"
    value {
      i: 0
    }
  }
  attr {
    key: "shrink_axis_mask"
    value {
      i: 1
    }
  }
}
node {
  name: "dnn/input_from_feature_columns/input_layer/Fare/Reshape/shape/1"
  op: "Const"
  attr {
    key: "_output_shapes"
    value {
      list {
        shape {
        }
      }
    }
  }
  attr {
    key: "dtype"
    value {
      type: DT_INT32
    }
  }
  attr {
    key: "value"
    value {
      tensor {
        dtype: DT_INT32
        tensor_shape {
        }
        int_val: 1
      }
    }
  }
}
node {
  name: "dnn/input_from_feature_columns/input_layer/Fare/Reshape/shape"
  op: "Pack"
  input: "dnn/input_from_feature_columns/input_layer/Fare/strided_slice"
  input: "dnn/input_from_feature_columns/input_layer/Fare/Reshape/shape/1"
  attr {
    key: "N"
    value {
      i: 2
    }
  }
  attr {
    key: "T"
    value {
      type: DT_INT32
    }
  }
  attr {
    key: "_output_shapes"
    value {
      list {
        shape {
          dim {
            size: 2
          }
        }
      }
    }
  }
  attr {
    key: "axis"
    value {
      i: 0
    }
  }
}
node {
  name: "dnn/input_from_feature_columns/input_layer/Fare/Reshape"
  op: "Reshape"
  input: "dnn/input_from_feature_columns/input_layer/Fare/ToFloat"
  input: "dnn/input_from_feature_columns/input_layer/Fare/Reshape/shape"
  attr {
    key: "T"
    value {
      type: DT_FLOAT
    }
  }
  attr {
    key: "Tshape"
    value {
      type: DT_INT32
    }
  }
  attr {
    key: "_output_shapes"
    value {
      list {
        shape {
          dim {
            size: -1
          }
          dim {
            size: 1
          }
        }
      }
    }
  }
}
node {
  name: "dnn/input_from_feature_columns/input_layer/Parch/ExpandDims/dim"
  op: "Const"
  attr {
    key: "_output_shapes"
    value {
      list {
        shape {
        }
      }
    }
  }
  attr {
    key: "dtype"
    value {
      type: DT_INT32
    }
  }
  attr {
    key: "value"
    value {
      tensor {
        dtype: DT_INT32
        tensor_shape {
        }
        int_val: -1
      }
    }
  }
}
node {
  name: "dnn/input_from_feature_columns/input_layer/Parch/ExpandDims"
  op: "ExpandDims"
  input: "random_shuffle_queue_DequeueUpTo:5"
  input: "dnn/input_from_feature_columns/input_layer/Parch/ExpandDims/dim"
  attr {
    key: "T"
    value {
      type: DT_INT64
    }
  }
  attr {
    key: "Tdim"
    value {
      type: DT_INT32
    }
  }
  attr {
    key: "_output_shapes"
    value {
      list {
        shape {
          dim {
            size: -1
          }
          dim {
            size: 1
          }
        }
      }
    }
  }
}
node {
  name: "dnn/input_from_feature_columns/input_layer/Parch/ToFloat"
  op: "Cast"
  input: "dnn/input_from_feature_columns/input_layer/Parch/ExpandDims"
  attr {
    key: "DstT"
    value {
      type: DT_FLOAT
    }
  }
  attr {
    key: "SrcT"
    value {
      type: DT_INT64
    }
  }
  attr {
    key: "_output_shapes"
    value {
      list {
        shape {
          dim {
            size: -1
          }
          dim {
            size: 1
          }
        }
      }
    }
  }
}
node {
  name: "dnn/input_from_feature_columns/input_layer/Parch/Shape"
  op: "Shape"
  input: "dnn/input_from_feature_columns/input_layer/Parch/ToFloat"
  attr {
    key: "T"
    value {
      type: DT_FLOAT
    }
  }
  attr {
    key: "_output_shapes"
    value {
      list {
        shape {
          dim {
            size: 2
          }
        }
      }
    }
  }
  attr {
    key: "out_type"
    value {
      type: DT_INT32
    }
  }
}
node {
  name: "dnn/input_from_feature_columns/input_layer/Parch/strided_slice/stack"
  op: "Const"
  attr {
    key: "_output_shapes"
    value {
      list {
        shape {
          dim {
            size: 1
          }
        }
      }
    }
  }
  attr {
    key: "dtype"
    value {
      type: DT_INT32
    }
  }
  attr {
    key: "value"
    value {
      tensor {
        dtype: DT_INT32
        tensor_shape {
          dim {
            size: 1
          }
        }
        int_val: 0
      }
    }
  }
}
node {
  name: "dnn/input_from_feature_columns/input_layer/Parch/strided_slice/stack_1"
  op: "Const"
  attr {
    key: "_output_shapes"
    value {
      list {
        shape {
          dim {
            size: 1
          }
        }
      }
    }
  }
  attr {
    key: "dtype"
    value {
      type: DT_INT32
    }
  }
  attr {
    key: "value"
    value {
      tensor {
        dtype: DT_INT32
        tensor_shape {
          dim {
            size: 1
          }
        }
        int_val: 1
      }
    }
  }
}
node {
  name: "dnn/input_from_feature_columns/input_layer/Parch/strided_slice/stack_2"
  op: "Const"
  attr {
    key: "_output_shapes"
    value {
      list {
        shape {
          dim {
            size: 1
          }
        }
      }
    }
  }
  attr {
    key: "dtype"
    value {
      type: DT_INT32
    }
  }
  attr {
    key: "value"
    value {
      tensor {
        dtype: DT_INT32
        tensor_shape {
          dim {
            size: 1
          }
        }
        int_val: 1
      }
    }
  }
}
node {
  name: "dnn/input_from_feature_columns/input_layer/Parch/strided_slice"
  op: "StridedSlice"
  input: "dnn/input_from_feature_columns/input_layer/Parch/Shape"
  input: "dnn/input_from_feature_columns/input_layer/Parch/strided_slice/stack"
  input: "dnn/input_from_feature_columns/input_layer/Parch/strided_slice/stack_1"
  input: "dnn/input_from_feature_columns/input_layer/Parch/strided_slice/stack_2"
  attr {
    key: "Index"
    value {
      type: DT_INT32
    }
  }
  attr {
    key: "T"
    value {
      type: DT_INT32
    }
  }
  attr {
    key: "_output_shapes"
    value {
      list {
        shape {
        }
      }
    }
  }
  attr {
    key: "begin_mask"
    value {
      i: 0
    }
  }
  attr {
    key: "ellipsis_mask"
    value {
      i: 0
    }
  }
  attr {
    key: "end_mask"
    value {
      i: 0
    }
  }
  attr {
    key: "new_axis_mask"
    value {
      i: 0
    }
  }
  attr {
    key: "shrink_axis_mask"
    value {
      i: 1
    }
  }
}
node {
  name: "dnn/input_from_feature_columns/input_layer/Parch/Reshape/shape/1"
  op: "Const"
  attr {
    key: "_output_shapes"
    value {
      list {
        shape {
        }
      }
    }
  }
  attr {
    key: "dtype"
    value {
      type: DT_INT32
    }
  }
  attr {
    key: "value"
    value {
      tensor {
        dtype: DT_INT32
        tensor_shape {
        }
        int_val: 1
      }
    }
  }
}
node {
  name: "dnn/input_from_feature_columns/input_layer/Parch/Reshape/shape"
  op: "Pack"
  input: "dnn/input_from_feature_columns/input_layer/Parch/strided_slice"
  input: "dnn/input_from_feature_columns/input_layer/Parch/Reshape/shape/1"
  attr {
    key: "N"
    value {
      i: 2
    }
  }
  attr {
    key: "T"
    value {
      type: DT_INT32
    }
  }
  attr {
    key: "_output_shapes"
    value {
      list {
        shape {
          dim {
            size: 2
          }
        }
      }
    }
  }
  attr {
    key: "axis"
    value {
      i: 0
    }
  }
}
node {
  name: "dnn/input_from_feature_columns/input_layer/Parch/Reshape"
  op: "Reshape"
  input: "dnn/input_from_feature_columns/input_layer/Parch/ToFloat"
  input: "dnn/input_from_feature_columns/input_layer/Parch/Reshape/shape"
  attr {
    key: "T"
    value {
      type: DT_FLOAT
    }
  }
  attr {
    key: "Tshape"
    value {
      type: DT_INT32
    }
  }
  attr {
    key: "_output_shapes"
    value {
      list {
        shape {
          dim {
            size: -1
          }
          dim {
            size: 1
          }
        }
      }
    }
  }
}
node {
  name: "dnn/input_from_feature_columns/input_layer/Pclass_indicator/ExpandDims/dim"
  op: "Const"
  attr {
    key: "_output_shapes"
    value {
      list {
        shape {
        }
      }
    }
  }
  attr {
    key: "dtype"
    value {
      type: DT_INT32
    }
  }
  attr {
    key: "value"
    value {
      tensor {
        dtype: DT_INT32
        tensor_shape {
        }
        int_val: -1
      }
    }
  }
}
node {
  name: "dnn/input_from_feature_columns/input_layer/Pclass_indicator/ExpandDims"
  op: "ExpandDims"
  input: "random_shuffle_queue_DequeueUpTo:1"
  input: "dnn/input_from_feature_columns/input_layer/Pclass_indicator/ExpandDims/dim"
  attr {
    key: "T"
    value {
      type: DT_INT64
    }
  }
  attr {
    key: "Tdim"
    value {
      type: DT_INT32
    }
  }
  attr {
    key: "_output_shapes"
    value {
      list {
        shape {
          dim {
            size: -1
          }
          dim {
            size: 1
          }
        }
      }
    }
  }
}
node {
  name: "dnn/input_from_feature_columns/input_layer/Pclass_indicator/to_sparse_input/ignore_value/x"
  op: "Const"
  attr {
    key: "_output_shapes"
    value {
      list {
        shape {
        }
      }
    }
  }
  attr {
    key: "dtype"
    value {
      type: DT_INT32
    }
  }
  attr {
    key: "value"
    value {
      tensor {
        dtype: DT_INT32
        tensor_shape {
        }
        int_val: -1
      }
    }
  }
}
node {
  name: "dnn/input_from_feature_columns/input_layer/Pclass_indicator/to_sparse_input/ignore_value"
  op: "Cast"
  input: "dnn/input_from_feature_columns/input_layer/Pclass_indicator/to_sparse_input/ignore_value/x"
  attr {
    key: "DstT"
    value {
      type: DT_INT64
    }
  }
  attr {
    key: "SrcT"
    value {
      type: DT_INT32
    }
  }
  attr {
    key: "_output_shapes"
    value {
      list {
        shape {
        }
      }
    }
  }
}
node {
  name: "dnn/input_from_feature_columns/input_layer/Pclass_indicator/to_sparse_input/NotEqual"
  op: "NotEqual"
  input: "dnn/input_from_feature_columns/input_layer/Pclass_indicator/ExpandDims"
  input: "dnn/input_from_feature_columns/input_layer/Pclass_indicator/to_sparse_input/ignore_value"
  attr {
    key: "T"
    value {
      type: DT_INT64
    }
  }
  attr {
    key: "_output_shapes"
    value {
      list {
        shape {
          dim {
            size: -1
          }
          dim {
            size: 1
          }
        }
      }
    }
  }
}
node {
  name: "dnn/input_from_feature_columns/input_layer/Pclass_indicator/to_sparse_input/indices"
  op: "Where"
  input: "dnn/input_from_feature_columns/input_layer/Pclass_indicator/to_sparse_input/NotEqual"
  attr {
    key: "T"
    value {
      type: DT_BOOL
    }
  }
  attr {
    key: "_output_shapes"
    value {
      list {
        shape {
          dim {
            size: -1
          }
          dim {
            size: 2
          }
        }
      }
    }
  }
}
node {
  name: "dnn/input_from_feature_columns/input_layer/Pclass_indicator/to_sparse_input/values"
  op: "GatherNd"
  input: "dnn/input_from_feature_columns/input_layer/Pclass_indicator/ExpandDims"
  input: "dnn/input_from_feature_columns/input_layer/Pclass_indicator/to_sparse_input/indices"
  attr {
    key: "Tindices"
    value {
      type: DT_INT64
    }
  }
  attr {
    key: "Tparams"
    value {
      type: DT_INT64
    }
  }
  attr {
    key: "_output_shapes"
    value {
      list {
        shape {
          dim {
            size: -1
          }
        }
      }
    }
  }
}
node {
  name: "dnn/input_from_feature_columns/input_layer/Pclass_indicator/to_sparse_input/dense_shape"
  op: "Shape"
  input: "dnn/input_from_feature_columns/input_layer/Pclass_indicator/ExpandDims"
  attr {
    key: "T"
    value {
      type: DT_INT64
    }
  }
  attr {
    key: "_output_shapes"
    value {
      list {
        shape {
          dim {
            size: 2
          }
        }
      }
    }
  }
  attr {
    key: "out_type"
    value {
      type: DT_INT64
    }
  }
}
node {
  name: "dnn/input_from_feature_columns/input_layer/Pclass_indicator/num_buckets/x"
  op: "Const"
  attr {
    key: "_output_shapes"
    value {
      list {
        shape {
        }
      }
    }
  }
  attr {
    key: "dtype"
    value {
      type: DT_INT32
    }
  }
  attr {
    key: "value"
    value {
      tensor {
        dtype: DT_INT32
        tensor_shape {
        }
        int_val: 4
      }
    }
  }
}
node {
  name: "dnn/input_from_feature_columns/input_layer/Pclass_indicator/num_buckets"
  op: "Cast"
  input: "dnn/input_from_feature_columns/input_layer/Pclass_indicator/num_buckets/x"
  attr {
    key: "DstT"
    value {
      type: DT_INT64
    }
  }
  attr {
    key: "SrcT"
    value {
      type: DT_INT32
    }
  }
  attr {
    key: "_output_shapes"
    value {
      list {
        shape {
        }
      }
    }
  }
}
node {
  name: "dnn/input_from_feature_columns/input_layer/Pclass_indicator/zero/x"
  op: "Const"
  attr {
    key: "_output_shapes"
    value {
      list {
        shape {
        }
      }
    }
  }
  attr {
    key: "dtype"
    value {
      type: DT_INT32
    }
  }
  attr {
    key: "value"
    value {
      tensor {
        dtype: DT_INT32
        tensor_shape {
        }
        int_val: 0
      }
    }
  }
}
node {
  name: "dnn/input_from_feature_columns/input_layer/Pclass_indicator/zero"
  op: "Cast"
  input: "dnn/input_from_feature_columns/input_layer/Pclass_indicator/zero/x"
  attr {
    key: "DstT"
    value {
      type: DT_INT64
    }
  }
  attr {
    key: "SrcT"
    value {
      type: DT_INT32
    }
  }
  attr {
    key: "_output_shapes"
    value {
      list {
        shape {
        }
      }
    }
  }
}
node {
  name: "dnn/input_from_feature_columns/input_layer/Pclass_indicator/assert_less_than_num_buckets/Less"
  op: "Less"
  input: "dnn/input_from_feature_columns/input_layer/Pclass_indicator/to_sparse_input/values"
  input: "dnn/input_from_feature_columns/input_layer/Pclass_indicator/num_buckets"
  attr {
    key: "T"
    value {
      type: DT_INT64
    }
  }
  attr {
    key: "_output_shapes"
    value {
      list {
        shape {
          dim {
            size: -1
          }
        }
      }
    }
  }
}
node {
  name: "dnn/input_from_feature_columns/input_layer/Pclass_indicator/assert_less_than_num_buckets/Const"
  op: "Const"
  attr {
    key: "_output_shapes"
    value {
      list {
        shape {
          dim {
            size: 1
          }
        }
      }
    }
  }
  attr {
    key: "dtype"
    value {
      type: DT_INT32
    }
  }
  attr {
    key: "value"
    value {
      tensor {
        dtype: DT_INT32
        tensor_shape {
          dim {
            size: 1
          }
        }
        int_val: 0
      }
    }
  }
}
node {
  name: "dnn/input_from_feature_columns/input_layer/Pclass_indicator/assert_less_than_num_buckets/All"
  op: "All"
  input: "dnn/input_from_feature_columns/input_layer/Pclass_indicator/assert_less_than_num_buckets/Less"
  input: "dnn/input_from_feature_columns/input_layer/Pclass_indicator/assert_less_than_num_buckets/Const"
  attr {
    key: "Tidx"
    value {
      type: DT_INT32
    }
  }
  attr {
    key: "_output_shapes"
    value {
      list {
        shape {
        }
      }
    }
  }
  attr {
    key: "keep_dims"
    value {
      b: false
    }
  }
}
node {
  name: "dnn/input_from_feature_columns/input_layer/Pclass_indicator/assert_less_than_num_buckets/Assert/AssertGuard/Switch"
  op: "Switch"
  input: "dnn/input_from_feature_columns/input_layer/Pclass_indicator/assert_less_than_num_buckets/All"
  input: "dnn/input_from_feature_columns/input_layer/Pclass_indicator/assert_less_than_num_buckets/All"
  attr {
    key: "T"
    value {
      type: DT_BOOL
    }
  }
  attr {
    key: "_output_shapes"
    value {
      list {
        shape {
        }
        shape {
        }
      }
    }
  }
}
node {
  name: "dnn/input_from_feature_columns/input_layer/Pclass_indicator/assert_less_than_num_buckets/Assert/AssertGuard/switch_t"
  op: "Identity"
  input: "dnn/input_from_feature_columns/input_layer/Pclass_indicator/assert_less_than_num_buckets/Assert/AssertGuard/Switch:1"
  attr {
    key: "T"
    value {
      type: DT_BOOL
    }
  }
  attr {
    key: "_output_shapes"
    value {
      list {
        shape {
        }
      }
    }
  }
}
node {
  name: "dnn/input_from_feature_columns/input_layer/Pclass_indicator/assert_less_than_num_buckets/Assert/AssertGuard/switch_f"
  op: "Identity"
  input: "dnn/input_from_feature_columns/input_layer/Pclass_indicator/assert_less_than_num_buckets/Assert/AssertGuard/Switch"
  attr {
    key: "T"
    value {
      type: DT_BOOL
    }
  }
  attr {
    key: "_output_shapes"
    value {
      list {
        shape {
        }
      }
    }
  }
}
node {
  name: "dnn/input_from_feature_columns/input_layer/Pclass_indicator/assert_less_than_num_buckets/Assert/AssertGuard/pred_id"
  op: "Identity"
  input: "dnn/input_from_feature_columns/input_layer/Pclass_indicator/assert_less_than_num_buckets/All"
  attr {
    key: "T"
    value {
      type: DT_BOOL
    }
  }
  attr {
    key: "_output_shapes"
    value {
      list {
        shape {
        }
      }
    }
  }
}
node {
  name: "dnn/input_from_feature_columns/input_layer/Pclass_indicator/assert_less_than_num_buckets/Assert/AssertGuard/NoOp"
  op: "NoOp"
  input: "^dnn/input_from_feature_columns/input_layer/Pclass_indicator/assert_less_than_num_buckets/Assert/AssertGuard/switch_t"
}
node {
  name: "dnn/input_from_feature_columns/input_layer/Pclass_indicator/assert_less_than_num_buckets/Assert/AssertGuard/control_dependency"
  op: "Identity"
  input: "dnn/input_from_feature_columns/input_layer/Pclass_indicator/assert_less_than_num_buckets/Assert/AssertGuard/switch_t"
  input: "^dnn/input_from_feature_columns/input_layer/Pclass_indicator/assert_less_than_num_buckets/Assert/AssertGuard/NoOp"
  attr {
    key: "T"
    value {
      type: DT_BOOL
    }
  }
  attr {
    key: "_class"
    value {
      list {
        s: "loc:@dnn/input_from_feature_columns/input_layer/Pclass_indicator/assert_less_than_num_buckets/Assert/AssertGuard/switch_t"
      }
    }
  }
  attr {
    key: "_output_shapes"
    value {
      list {
        shape {
        }
      }
    }
  }
}
node {
  name: "dnn/input_from_feature_columns/input_layer/Pclass_indicator/assert_less_than_num_buckets/Assert/AssertGuard/Assert"
  op: "Assert"
  input: "dnn/input_from_feature_columns/input_layer/Pclass_indicator/assert_less_than_num_buckets/Assert/AssertGuard/Assert/Switch"
  input: "dnn/input_from_feature_columns/input_layer/Pclass_indicator/assert_less_than_num_buckets/Assert/AssertGuard/Assert/Switch_1"
  input: "dnn/input_from_feature_columns/input_layer/Pclass_indicator/assert_less_than_num_buckets/Assert/AssertGuard/Assert/Switch_2"
  attr {
    key: "T"
    value {
      list {
        type: DT_INT64
        type: DT_INT64
      }
    }
  }
  attr {
    key: "summarize"
    value {
      i: 3
    }
  }
}
node {
  name: "dnn/input_from_feature_columns/input_layer/Pclass_indicator/assert_less_than_num_buckets/Assert/AssertGuard/Assert/Switch"
  op: "Switch"
  input: "dnn/input_from_feature_columns/input_layer/Pclass_indicator/assert_less_than_num_buckets/All"
  input: "dnn/input_from_feature_columns/input_layer/Pclass_indicator/assert_less_than_num_buckets/Assert/AssertGuard/pred_id"
  attr {
    key: "T"
    value {
      type: DT_BOOL
    }
  }
  attr {
    key: "_class"
    value {
      list {
        s: "loc:@dnn/input_from_feature_columns/input_layer/Pclass_indicator/assert_less_than_num_buckets/All"
      }
    }
  }
  attr {
    key: "_output_shapes"
    value {
      list {
        shape {
        }
        shape {
        }
      }
    }
  }
}
node {
  name: "dnn/input_from_feature_columns/input_layer/Pclass_indicator/assert_less_than_num_buckets/Assert/AssertGuard/Assert/Switch_1"
  op: "Switch"
  input: "dnn/input_from_feature_columns/input_layer/Pclass_indicator/to_sparse_input/values"
  input: "dnn/input_from_feature_columns/input_layer/Pclass_indicator/assert_less_than_num_buckets/Assert/AssertGuard/pred_id"
  attr {
    key: "T"
    value {
      type: DT_INT64
    }
  }
  attr {
    key: "_class"
    value {
      list {
        s: "loc:@dnn/input_from_feature_columns/input_layer/Pclass_indicator/to_sparse_input/values"
      }
    }
  }
  attr {
    key: "_output_shapes"
    value {
      list {
        shape {
          dim {
            size: -1
          }
        }
        shape {
          dim {
            size: -1
          }
        }
      }
    }
  }
}
node {
  name: "dnn/input_from_feature_columns/input_layer/Pclass_indicator/assert_less_than_num_buckets/Assert/AssertGuard/Assert/Switch_2"
  op: "Switch"
  input: "dnn/input_from_feature_columns/input_layer/Pclass_indicator/num_buckets"
  input: "dnn/input_from_feature_columns/input_layer/Pclass_indicator/assert_less_than_num_buckets/Assert/AssertGuard/pred_id"
  attr {
    key: "T"
    value {
      type: DT_INT64
    }
  }
  attr {
    key: "_class"
    value {
      list {
        s: "loc:@dnn/input_from_feature_columns/input_layer/Pclass_indicator/num_buckets"
      }
    }
  }
  attr {
    key: "_output_shapes"
    value {
      list {
        shape {
        }
        shape {
        }
      }
    }
  }
}
node {
  name: "dnn/input_from_feature_columns/input_layer/Pclass_indicator/assert_less_than_num_buckets/Assert/AssertGuard/control_dependency_1"
  op: "Identity"
  input: "dnn/input_from_feature_columns/input_layer/Pclass_indicator/assert_less_than_num_buckets/Assert/AssertGuard/switch_f"
  input: "^dnn/input_from_feature_columns/input_layer/Pclass_indicator/assert_less_than_num_buckets/Assert/AssertGuard/Assert"
  attr {
    key: "T"
    value {
      type: DT_BOOL
    }
  }
  attr {
    key: "_class"
    value {
      list {
        s: "loc:@dnn/input_from_feature_columns/input_layer/Pclass_indicator/assert_less_than_num_buckets/Assert/AssertGuard/switch_f"
      }
    }
  }
  attr {
    key: "_output_shapes"
    value {
      list {
        shape {
        }
      }
    }
  }
}
node {
  name: "dnn/input_from_feature_columns/input_layer/Pclass_indicator/assert_less_than_num_buckets/Assert/AssertGuard/Merge"
  op: "Merge"
  input: "dnn/input_from_feature_columns/input_layer/Pclass_indicator/assert_less_than_num_buckets/Assert/AssertGuard/control_dependency_1"
  input: "dnn/input_from_feature_columns/input_layer/Pclass_indicator/assert_less_than_num_buckets/Assert/AssertGuard/control_dependency"
  attr {
    key: "N"
    value {
      i: 2
    }
  }
  attr {
    key: "T"
    value {
      type: DT_BOOL
    }
  }
  attr {
    key: "_output_shapes"
    value {
      list {
        shape {
        }
        shape {
        }
      }
    }
  }
}
node {
  name: "dnn/input_from_feature_columns/input_layer/Pclass_indicator/assert_greater_or_equal_0/GreaterEqual"
  op: "GreaterEqual"
  input: "dnn/input_from_feature_columns/input_layer/Pclass_indicator/to_sparse_input/values"
  input: "dnn/input_from_feature_columns/input_layer/Pclass_indicator/zero"
  attr {
    key: "T"
    value {
      type: DT_INT64
    }
  }
  attr {
    key: "_output_shapes"
    value {
      list {
        shape {
          dim {
            size: -1
          }
        }
      }
    }
  }
}
node {
  name: "dnn/input_from_feature_columns/input_layer/Pclass_indicator/assert_greater_or_equal_0/Const"
  op: "Const"
  attr {
    key: "_output_shapes"
    value {
      list {
        shape {
          dim {
            size: 1
          }
        }
      }
    }
  }
  attr {
    key: "dtype"
    value {
      type: DT_INT32
    }
  }
  attr {
    key: "value"
    value {
      tensor {
        dtype: DT_INT32
        tensor_shape {
          dim {
            size: 1
          }
        }
        int_val: 0
      }
    }
  }
}
node {
  name: "dnn/input_from_feature_columns/input_layer/Pclass_indicator/assert_greater_or_equal_0/All"
  op: "All"
  input: "dnn/input_from_feature_columns/input_layer/Pclass_indicator/assert_greater_or_equal_0/GreaterEqual"
  input: "dnn/input_from_feature_columns/input_layer/Pclass_indicator/assert_greater_or_equal_0/Const"
  attr {
    key: "Tidx"
    value {
      type: DT_INT32
    }
  }
  attr {
    key: "_output_shapes"
    value {
      list {
        shape {
        }
      }
    }
  }
  attr {
    key: "keep_dims"
    value {
      b: false
    }
  }
}
node {
  name: "dnn/input_from_feature_columns/input_layer/Pclass_indicator/assert_greater_or_equal_0/Assert/AssertGuard/Switch"
  op: "Switch"
  input: "dnn/input_from_feature_columns/input_layer/Pclass_indicator/assert_greater_or_equal_0/All"
  input: "dnn/input_from_feature_columns/input_layer/Pclass_indicator/assert_greater_or_equal_0/All"
  attr {
    key: "T"
    value {
      type: DT_BOOL
    }
  }
  attr {
    key: "_output_shapes"
    value {
      list {
        shape {
        }
        shape {
        }
      }
    }
  }
}
node {
  name: "dnn/input_from_feature_columns/input_layer/Pclass_indicator/assert_greater_or_equal_0/Assert/AssertGuard/switch_t"
  op: "Identity"
  input: "dnn/input_from_feature_columns/input_layer/Pclass_indicator/assert_greater_or_equal_0/Assert/AssertGuard/Switch:1"
  attr {
    key: "T"
    value {
      type: DT_BOOL
    }
  }
  attr {
    key: "_output_shapes"
    value {
      list {
        shape {
        }
      }
    }
  }
}
node {
  name: "dnn/input_from_feature_columns/input_layer/Pclass_indicator/assert_greater_or_equal_0/Assert/AssertGuard/switch_f"
  op: "Identity"
  input: "dnn/input_from_feature_columns/input_layer/Pclass_indicator/assert_greater_or_equal_0/Assert/AssertGuard/Switch"
  attr {
    key: "T"
    value {
      type: DT_BOOL
    }
  }
  attr {
    key: "_output_shapes"
    value {
      list {
        shape {
        }
      }
    }
  }
}
node {
  name: "dnn/input_from_feature_columns/input_layer/Pclass_indicator/assert_greater_or_equal_0/Assert/AssertGuard/pred_id"
  op: "Identity"
  input: "dnn/input_from_feature_columns/input_layer/Pclass_indicator/assert_greater_or_equal_0/All"
  attr {
    key: "T"
    value {
      type: DT_BOOL
    }
  }
  attr {
    key: "_output_shapes"
    value {
      list {
        shape {
        }
      }
    }
  }
}
node {
  name: "dnn/input_from_feature_columns/input_layer/Pclass_indicator/assert_greater_or_equal_0/Assert/AssertGuard/NoOp"
  op: "NoOp"
  input: "^dnn/input_from_feature_columns/input_layer/Pclass_indicator/assert_greater_or_equal_0/Assert/AssertGuard/switch_t"
}
node {
  name: "dnn/input_from_feature_columns/input_layer/Pclass_indicator/assert_greater_or_equal_0/Assert/AssertGuard/control_dependency"
  op: "Identity"
  input: "dnn/input_from_feature_columns/input_layer/Pclass_indicator/assert_greater_or_equal_0/Assert/AssertGuard/switch_t"
  input: "^dnn/input_from_feature_columns/input_layer/Pclass_indicator/assert_greater_or_equal_0/Assert/AssertGuard/NoOp"
  attr {
    key: "T"
    value {
      type: DT_BOOL
    }
  }
  attr {
    key: "_class"
    value {
      list {
        s: "loc:@dnn/input_from_feature_columns/input_layer/Pclass_indicator/assert_greater_or_equal_0/Assert/AssertGuard/switch_t"
      }
    }
  }
  attr {
    key: "_output_shapes"
    value {
      list {
        shape {
        }
      }
    }
  }
}
node {
  name: "dnn/input_from_feature_columns/input_layer/Pclass_indicator/assert_greater_or_equal_0/Assert/AssertGuard/Assert"
  op: "Assert"
  input: "dnn/input_from_feature_columns/input_layer/Pclass_indicator/assert_greater_or_equal_0/Assert/AssertGuard/Assert/Switch"
  input: "dnn/input_from_feature_columns/input_layer/Pclass_indicator/assert_greater_or_equal_0/Assert/AssertGuard/Assert/Switch_1"
  attr {
    key: "T"
    value {
      list {
        type: DT_INT64
      }
    }
  }
  attr {
    key: "summarize"
    value {
      i: 3
    }
  }
}
node {
  name: "dnn/input_from_feature_columns/input_layer/Pclass_indicator/assert_greater_or_equal_0/Assert/AssertGuard/Assert/Switch"
  op: "Switch"
  input: "dnn/input_from_feature_columns/input_layer/Pclass_indicator/assert_greater_or_equal_0/All"
  input: "dnn/input_from_feature_columns/input_layer/Pclass_indicator/assert_greater_or_equal_0/Assert/AssertGuard/pred_id"
  attr {
    key: "T"
    value {
      type: DT_BOOL
    }
  }
  attr {
    key: "_class"
    value {
      list {
        s: "loc:@dnn/input_from_feature_columns/input_layer/Pclass_indicator/assert_greater_or_equal_0/All"
      }
    }
  }
  attr {
    key: "_output_shapes"
    value {
      list {
        shape {
        }
        shape {
        }
      }
    }
  }
}
node {
  name: "dnn/input_from_feature_columns/input_layer/Pclass_indicator/assert_greater_or_equal_0/Assert/AssertGuard/Assert/Switch_1"
  op: "Switch"
  input: "dnn/input_from_feature_columns/input_layer/Pclass_indicator/to_sparse_input/values"
  input: "dnn/input_from_feature_columns/input_layer/Pclass_indicator/assert_greater_or_equal_0/Assert/AssertGuard/pred_id"
  attr {
    key: "T"
    value {
      type: DT_INT64
    }
  }
  attr {
    key: "_class"
    value {
      list {
        s: "loc:@dnn/input_from_feature_columns/input_layer/Pclass_indicator/to_sparse_input/values"
      }
    }
  }
  attr {
    key: "_output_shapes"
    value {
      list {
        shape {
          dim {
            size: -1
          }
        }
        shape {
          dim {
            size: -1
          }
        }
      }
    }
  }
}
node {
  name: "dnn/input_from_feature_columns/input_layer/Pclass_indicator/assert_greater_or_equal_0/Assert/AssertGuard/control_dependency_1"
  op: "Identity"
  input: "dnn/input_from_feature_columns/input_layer/Pclass_indicator/assert_greater_or_equal_0/Assert/AssertGuard/switch_f"
  input: "^dnn/input_from_feature_columns/input_layer/Pclass_indicator/assert_greater_or_equal_0/Assert/AssertGuard/Assert"
  attr {
    key: "T"
    value {
      type: DT_BOOL
    }
  }
  attr {
    key: "_class"
    value {
      list {
        s: "loc:@dnn/input_from_feature_columns/input_layer/Pclass_indicator/assert_greater_or_equal_0/Assert/AssertGuard/switch_f"
      }
    }
  }
  attr {
    key: "_output_shapes"
    value {
      list {
        shape {
        }
      }
    }
  }
}
node {
  name: "dnn/input_from_feature_columns/input_layer/Pclass_indicator/assert_greater_or_equal_0/Assert/AssertGuard/Merge"
  op: "Merge"
  input: "dnn/input_from_feature_columns/input_layer/Pclass_indicator/assert_greater_or_equal_0/Assert/AssertGuard/control_dependency_1"
  input: "dnn/input_from_feature_columns/input_layer/Pclass_indicator/assert_greater_or_equal_0/Assert/AssertGuard/control_dependency"
  attr {
    key: "N"
    value {
      i: 2
    }
  }
  attr {
    key: "T"
    value {
      type: DT_BOOL
    }
  }
  attr {
    key: "_output_shapes"
    value {
      list {
        shape {
        }
        shape {
        }
      }
    }
  }
}
node {
  name: "dnn/input_from_feature_columns/input_layer/Pclass_indicator/Identity"
  op: "Identity"
  input: "dnn/input_from_feature_columns/input_layer/Pclass_indicator/to_sparse_input/values"
  input: "^dnn/input_from_feature_columns/input_layer/Pclass_indicator/assert_greater_or_equal_0/Assert/AssertGuard/Merge"
  input: "^dnn/input_from_feature_columns/input_layer/Pclass_indicator/assert_less_than_num_buckets/Assert/AssertGuard/Merge"
  attr {
    key: "T"
    value {
      type: DT_INT64
    }
  }
  attr {
    key: "_output_shapes"
    value {
      list {
        shape {
          dim {
            size: -1
          }
        }
      }
    }
  }
}
node {
  name: "dnn/input_from_feature_columns/input_layer/Pclass_indicator/SparseToDense/default_value"
  op: "Const"
  attr {
    key: "_output_shapes"
    value {
      list {
        shape {
        }
      }
    }
  }
  attr {
    key: "dtype"
    value {
      type: DT_INT64
    }
  }
  attr {
    key: "value"
    value {
      tensor {
        dtype: DT_INT64
        tensor_shape {
        }
        int64_val: -1
      }
    }
  }
}
node {
  name: "dnn/input_from_feature_columns/input_layer/Pclass_indicator/SparseToDense"
  op: "SparseToDense"
  input: "dnn/input_from_feature_columns/input_layer/Pclass_indicator/to_sparse_input/indices"
  input: "dnn/input_from_feature_columns/input_layer/Pclass_indicator/to_sparse_input/dense_shape"
  input: "dnn/input_from_feature_columns/input_layer/Pclass_indicator/Identity"
  input: "dnn/input_from_feature_columns/input_layer/Pclass_indicator/SparseToDense/default_value"
  attr {
    key: "T"
    value {
      type: DT_INT64
    }
  }
  attr {
    key: "Tindices"
    value {
      type: DT_INT64
    }
  }
  attr {
    key: "_output_shapes"
    value {
      list {
        shape {
          dim {
            size: -1
          }
          dim {
            size: 1
          }
        }
      }
    }
  }
  attr {
    key: "validate_indices"
    value {
      b: true
    }
  }
}
node {
  name: "dnn/input_from_feature_columns/input_layer/Pclass_indicator/one_hot/Const"
  op: "Const"
  attr {
    key: "_output_shapes"
    value {
      list {
        shape {
        }
      }
    }
  }
  attr {
    key: "dtype"
    value {
      type: DT_FLOAT
    }
  }
  attr {
    key: "value"
    value {
      tensor {
        dtype: DT_FLOAT
        tensor_shape {
        }
        float_val: 1.0
      }
    }
  }
}
node {
  name: "dnn/input_from_feature_columns/input_layer/Pclass_indicator/one_hot/Const_1"
  op: "Const"
  attr {
    key: "_output_shapes"
    value {
      list {
        shape {
        }
      }
    }
  }
  attr {
    key: "dtype"
    value {
      type: DT_FLOAT
    }
  }
  attr {
    key: "value"
    value {
      tensor {
        dtype: DT_FLOAT
        tensor_shape {
        }
        float_val: 0.0
      }
    }
  }
}
node {
  name: "dnn/input_from_feature_columns/input_layer/Pclass_indicator/one_hot/depth"
  op: "Const"
  attr {
    key: "_output_shapes"
    value {
      list {
        shape {
        }
      }
    }
  }
  attr {
    key: "dtype"
    value {
      type: DT_INT32
    }
  }
  attr {
    key: "value"
    value {
      tensor {
        dtype: DT_INT32
        tensor_shape {
        }
        int_val: 4
      }
    }
  }
}
node {
  name: "dnn/input_from_feature_columns/input_layer/Pclass_indicator/one_hot/on_value"
  op: "Const"
  attr {
    key: "_output_shapes"
    value {
      list {
        shape {
        }
      }
    }
  }
  attr {
    key: "dtype"
    value {
      type: DT_FLOAT
    }
  }
  attr {
    key: "value"
    value {
      tensor {
        dtype: DT_FLOAT
        tensor_shape {
        }
        float_val: 1.0
      }
    }
  }
}
node {
  name: "dnn/input_from_feature_columns/input_layer/Pclass_indicator/one_hot/off_value"
  op: "Const"
  attr {
    key: "_output_shapes"
    value {
      list {
        shape {
        }
      }
    }
  }
  attr {
    key: "dtype"
    value {
      type: DT_FLOAT
    }
  }
  attr {
    key: "value"
    value {
      tensor {
        dtype: DT_FLOAT
        tensor_shape {
        }
        float_val: 0.0
      }
    }
  }
}
node {
  name: "dnn/input_from_feature_columns/input_layer/Pclass_indicator/one_hot"
  op: "OneHot"
  input: "dnn/input_from_feature_columns/input_layer/Pclass_indicator/SparseToDense"
  input: "dnn/input_from_feature_columns/input_layer/Pclass_indicator/one_hot/depth"
  input: "dnn/input_from_feature_columns/input_layer/Pclass_indicator/one_hot/on_value"
  input: "dnn/input_from_feature_columns/input_layer/Pclass_indicator/one_hot/off_value"
  attr {
    key: "T"
    value {
      type: DT_FLOAT
    }
  }
  attr {
    key: "TI"
    value {
      type: DT_INT64
    }
  }
  attr {
    key: "_output_shapes"
    value {
      list {
        shape {
          dim {
            size: -1
          }
          dim {
            size: 1
          }
          dim {
            size: 4
          }
        }
      }
    }
  }
  attr {
    key: "axis"
    value {
      i: -1
    }
  }
}
node {
  name: "dnn/input_from_feature_columns/input_layer/Pclass_indicator/Sum/reduction_indices"
  op: "Const"
  attr {
    key: "_output_shapes"
    value {
      list {
        shape {
          dim {
            size: 1
          }
        }
      }
    }
  }
  attr {
    key: "dtype"
    value {
      type: DT_INT32
    }
  }
  attr {
    key: "value"
    value {
      tensor {
        dtype: DT_INT32
        tensor_shape {
          dim {
            size: 1
          }
        }
        int_val: -2
      }
    }
  }
}
node {
  name: "dnn/input_from_feature_columns/input_layer/Pclass_indicator/Sum"
  op: "Sum"
  input: "dnn/input_from_feature_columns/input_layer/Pclass_indicator/one_hot"
  input: "dnn/input_from_feature_columns/input_layer/Pclass_indicator/Sum/reduction_indices"
  attr {
    key: "T"
    value {
      type: DT_FLOAT
    }
  }
  attr {
    key: "Tidx"
    value {
      type: DT_INT32
    }
  }
  attr {
    key: "_output_shapes"
    value {
      list {
        shape {
          dim {
            size: -1
          }
          dim {
            size: 4
          }
        }
      }
    }
  }
  attr {
    key: "keep_dims"
    value {
      b: false
    }
  }
}
node {
  name: "dnn/input_from_feature_columns/input_layer/Pclass_indicator/Shape"
  op: "Shape"
  input: "dnn/input_from_feature_columns/input_layer/Pclass_indicator/Sum"
  attr {
    key: "T"
    value {
      type: DT_FLOAT
    }
  }
  attr {
    key: "_output_shapes"
    value {
      list {
        shape {
          dim {
            size: 2
          }
        }
      }
    }
  }
  attr {
    key: "out_type"
    value {
      type: DT_INT32
    }
  }
}
node {
  name: "dnn/input_from_feature_columns/input_layer/Pclass_indicator/strided_slice/stack"
  op: "Const"
  attr {
    key: "_output_shapes"
    value {
      list {
        shape {
          dim {
            size: 1
          }
        }
      }
    }
  }
  attr {
    key: "dtype"
    value {
      type: DT_INT32
    }
  }
  attr {
    key: "value"
    value {
      tensor {
        dtype: DT_INT32
        tensor_shape {
          dim {
            size: 1
          }
        }
        int_val: 0
      }
    }
  }
}
node {
  name: "dnn/input_from_feature_columns/input_layer/Pclass_indicator/strided_slice/stack_1"
  op: "Const"
  attr {
    key: "_output_shapes"
    value {
      list {
        shape {
          dim {
            size: 1
          }
        }
      }
    }
  }
  attr {
    key: "dtype"
    value {
      type: DT_INT32
    }
  }
  attr {
    key: "value"
    value {
      tensor {
        dtype: DT_INT32
        tensor_shape {
          dim {
            size: 1
          }
        }
        int_val: 1
      }
    }
  }
}
node {
  name: "dnn/input_from_feature_columns/input_layer/Pclass_indicator/strided_slice/stack_2"
  op: "Const"
  attr {
    key: "_output_shapes"
    value {
      list {
        shape {
          dim {
            size: 1
          }
        }
      }
    }
  }
  attr {
    key: "dtype"
    value {
      type: DT_INT32
    }
  }
  attr {
    key: "value"
    value {
      tensor {
        dtype: DT_INT32
        tensor_shape {
          dim {
            size: 1
          }
        }
        int_val: 1
      }
    }
  }
}
node {
  name: "dnn/input_from_feature_columns/input_layer/Pclass_indicator/strided_slice"
  op: "StridedSlice"
  input: "dnn/input_from_feature_columns/input_layer/Pclass_indicator/Shape"
  input: "dnn/input_from_feature_columns/input_layer/Pclass_indicator/strided_slice/stack"
  input: "dnn/input_from_feature_columns/input_layer/Pclass_indicator/strided_slice/stack_1"
  input: "dnn/input_from_feature_columns/input_layer/Pclass_indicator/strided_slice/stack_2"
  attr {
    key: "Index"
    value {
      type: DT_INT32
    }
  }
  attr {
    key: "T"
    value {
      type: DT_INT32
    }
  }
  attr {
    key: "_output_shapes"
    value {
      list {
        shape {
        }
      }
    }
  }
  attr {
    key: "begin_mask"
    value {
      i: 0
    }
  }
  attr {
    key: "ellipsis_mask"
    value {
      i: 0
    }
  }
  attr {
    key: "end_mask"
    value {
      i: 0
    }
  }
  attr {
    key: "new_axis_mask"
    value {
      i: 0
    }
  }
  attr {
    key: "shrink_axis_mask"
    value {
      i: 1
    }
  }
}
node {
  name: "dnn/input_from_feature_columns/input_layer/Pclass_indicator/Reshape/shape/1"
  op: "Const"
  attr {
    key: "_output_shapes"
    value {
      list {
        shape {
        }
      }
    }
  }
  attr {
    key: "dtype"
    value {
      type: DT_INT32
    }
  }
  attr {
    key: "value"
    value {
      tensor {
        dtype: DT_INT32
        tensor_shape {
        }
        int_val: 4
      }
    }
  }
}
node {
  name: "dnn/input_from_feature_columns/input_layer/Pclass_indicator/Reshape/shape"
  op: "Pack"
  input: "dnn/input_from_feature_columns/input_layer/Pclass_indicator/strided_slice"
  input: "dnn/input_from_feature_columns/input_layer/Pclass_indicator/Reshape/shape/1"
  attr {
    key: "N"
    value {
      i: 2
    }
  }
  attr {
    key: "T"
    value {
      type: DT_INT32
    }
  }
  attr {
    key: "_output_shapes"
    value {
      list {
        shape {
          dim {
            size: 2
          }
        }
      }
    }
  }
  attr {
    key: "axis"
    value {
      i: 0
    }
  }
}
node {
  name: "dnn/input_from_feature_columns/input_layer/Pclass_indicator/Reshape"
  op: "Reshape"
  input: "dnn/input_from_feature_columns/input_layer/Pclass_indicator/Sum"
  input: "dnn/input_from_feature_columns/input_layer/Pclass_indicator/Reshape/shape"
  attr {
    key: "T"
    value {
      type: DT_FLOAT
    }
  }
  attr {
    key: "Tshape"
    value {
      type: DT_INT32
    }
  }
  attr {
    key: "_output_shapes"
    value {
      list {
        shape {
          dim {
            size: -1
          }
          dim {
            size: 4
          }
        }
      }
    }
  }
}
node {
  name: "dnn/input_from_feature_columns/input_layer/Sex_indicator/ExpandDims/dim"
  op: "Const"
  attr {
    key: "_output_shapes"
    value {
      list {
        shape {
        }
      }
    }
  }
  attr {
    key: "dtype"
    value {
      type: DT_INT32
    }
  }
  attr {
    key: "value"
    value {
      tensor {
        dtype: DT_INT32
        tensor_shape {
        }
        int_val: -1
      }
    }
  }
}
node {
  name: "dnn/input_from_feature_columns/input_layer/Sex_indicator/ExpandDims"
  op: "ExpandDims"
  input: "random_shuffle_queue_DequeueUpTo:2"
  input: "dnn/input_from_feature_columns/input_layer/Sex_indicator/ExpandDims/dim"
  attr {
    key: "T"
    value {
      type: DT_STRING
    }
  }
  attr {
    key: "Tdim"
    value {
      type: DT_INT32
    }
  }
  attr {
    key: "_output_shapes"
    value {
      list {
        shape {
          dim {
            size: -1
          }
          dim {
            size: 1
          }
        }
      }
    }
  }
}
node {
  name: "dnn/input_from_feature_columns/input_layer/Sex_indicator/to_sparse_input/ignore_value/x"
  op: "Const"
  attr {
    key: "_output_shapes"
    value {
      list {
        shape {
        }
      }
    }
  }
  attr {
    key: "dtype"
    value {
      type: DT_STRING
    }
  }
  attr {
    key: "value"
    value {
      tensor {
        dtype: DT_STRING
        tensor_shape {
        }
        string_val: ""
      }
    }
  }
}
node {
  name: "dnn/input_from_feature_columns/input_layer/Sex_indicator/to_sparse_input/NotEqual"
  op: "NotEqual"
  input: "dnn/input_from_feature_columns/input_layer/Sex_indicator/ExpandDims"
  input: "dnn/input_from_feature_columns/input_layer/Sex_indicator/to_sparse_input/ignore_value/x"
  attr {
    key: "T"
    value {
      type: DT_STRING
    }
  }
  attr {
    key: "_output_shapes"
    value {
      list {
        shape {
          dim {
            size: -1
          }
          dim {
            size: 1
          }
        }
      }
    }
  }
}
node {
  name: "dnn/input_from_feature_columns/input_layer/Sex_indicator/to_sparse_input/indices"
  op: "Where"
  input: "dnn/input_from_feature_columns/input_layer/Sex_indicator/to_sparse_input/NotEqual"
  attr {
    key: "T"
    value {
      type: DT_BOOL
    }
  }
  attr {
    key: "_output_shapes"
    value {
      list {
        shape {
          dim {
            size: -1
          }
          dim {
            size: 2
          }
        }
      }
    }
  }
}
node {
  name: "dnn/input_from_feature_columns/input_layer/Sex_indicator/to_sparse_input/values"
  op: "GatherNd"
  input: "dnn/input_from_feature_columns/input_layer/Sex_indicator/ExpandDims"
  input: "dnn/input_from_feature_columns/input_layer/Sex_indicator/to_sparse_input/indices"
  attr {
    key: "Tindices"
    value {
      type: DT_INT64
    }
  }
  attr {
    key: "Tparams"
    value {
      type: DT_STRING
    }
  }
  attr {
    key: "_output_shapes"
    value {
      list {
        shape {
          dim {
            size: -1
          }
        }
      }
    }
  }
}
node {
  name: "dnn/input_from_feature_columns/input_layer/Sex_indicator/to_sparse_input/dense_shape"
  op: "Shape"
  input: "dnn/input_from_feature_columns/input_layer/Sex_indicator/ExpandDims"
  attr {
    key: "T"
    value {
      type: DT_STRING
    }
  }
  attr {
    key: "_output_shapes"
    value {
      list {
        shape {
          dim {
            size: 2
          }
        }
      }
    }
  }
  attr {
    key: "out_type"
    value {
      type: DT_INT64
    }
  }
}
node {
  name: "dnn/input_from_feature_columns/input_layer/Sex_indicator/Sex_lookup/Const"
  op: "Const"
  attr {
    key: "_output_shapes"
    value {
      list {
        shape {
          dim {
            size: 2
          }
        }
      }
    }
  }
  attr {
    key: "dtype"
    value {
      type: DT_STRING
    }
  }
  attr {
    key: "value"
    value {
      tensor {
        dtype: DT_STRING
        tensor_shape {
          dim {
            size: 2
          }
        }
        string_val: "male"
        string_val: "female"
      }
    }
  }
}
node {
  name: "dnn/input_from_feature_columns/input_layer/Sex_indicator/Sex_lookup/Size"
  op: "Const"
  attr {
    key: "_output_shapes"
    value {
      list {
        shape {
        }
      }
    }
  }
  attr {
    key: "dtype"
    value {
      type: DT_INT32
    }
  }
  attr {
    key: "value"
    value {
      tensor {
        dtype: DT_INT32
        tensor_shape {
        }
        int_val: 2
      }
    }
  }
}
node {
  name: "dnn/input_from_feature_columns/input_layer/Sex_indicator/Sex_lookup/range/start"
  op: "Const"
  attr {
    key: "_output_shapes"
    value {
      list {
        shape {
        }
      }
    }
  }
  attr {
    key: "dtype"
    value {
      type: DT_INT32
    }
  }
  attr {
    key: "value"
    value {
      tensor {
        dtype: DT_INT32
        tensor_shape {
        }
        int_val: 0
      }
    }
  }
}
node {
  name: "dnn/input_from_feature_columns/input_layer/Sex_indicator/Sex_lookup/range/delta"
  op: "Const"
  attr {
    key: "_output_shapes"
    value {
      list {
        shape {
…
      type: DT_FLOAT
    }
  }
  attr {
    key: "_class"
    value {
      list {
        s: "loc:@dnn/hiddenlayer_5/bias/part_0"
      }
    }
  }
  attr {
    key: "_output_shapes"
    value {
      list {
        shape {
          dim {
            size: 160
          }
        }
      }
    }
  }
  attr {
    key: "use_locking"
    value {
      b: true
    }
  }
  attr {
    key: "validate_shape"
    value {
      b: true
    }
  }
}
node {
  name: "save/Assign_95"
  op: "Assign"
  input: "dnn/dnn/hiddenlayer_5/bias/part_0/Adam"
  input: "save/RestoreV2:95"
  attr {
    key: "T"
    value {
      type: DT_FLOAT
    }
  }
  attr {
    key: "_class"
    value {
      list {
        s: "loc:@dnn/hiddenlayer_5/bias/part_0"
      }
    }
  }
  attr {
    key: "_output_shapes"
    value {
      list {
        shape {
          dim {
            size: 160
          }
        }
      }
    }
  }
  attr {
    key: "use_locking"
    value {
      b: true
    }
  }
  attr {
    key: "validate_shape"
    value {
      b: true
    }
  }
}
node {
  name: "save/Assign_96"
  op: "Assign"
  input: "dnn/dnn/hiddenlayer_5/bias/part_0/Adam_1"
  input: "save/RestoreV2:96"
  attr {
    key: "T"
    value {
      type: DT_FLOAT
    }
  }
  attr {
    key: "_class"
    value {
      list {
        s: "loc:@dnn/hiddenlayer_5/bias/part_0"
      }
    }
  }
  attr {
    key: "_output_shapes"
    value {
      list {
        shape {
          dim {
            size: 160
          }
        }
      }
    }
  }
  attr {
    key: "use_locking"
    value {
      b: true
    }
  }
  attr {
    key: "validate_shape"
    value {
      b: true
    }
  }
}
node {
  name: "save/Assign_97"
  op: "Assign"
  input: "dnn/hiddenlayer_5/kernel/part_0"
  input: "save/RestoreV2:97"
  attr {
    key: "T"
    value {
      type: DT_FLOAT
    }
  }
  attr {
    key: "_class"
    value {
      list {
        s: "loc:@dnn/hiddenlayer_5/kernel/part_0"
      }
    }
  }
  attr {
    key: "_output_shapes"
    value {
      list {
        shape {
          dim {
            size: 160
          }
          dim {
            size: 160
          }
        }
      }
    }
  }
  attr {
    key: "use_locking"
    value {
      b: true
    }
  }
  attr {
    key: "validate_shape"
    value {
      b: true
    }
  }
}
node {
  name: "save/Assign_98"
  op: "Assign"
  input: "dnn/dnn/hiddenlayer_5/kernel/part_0/Adam"
  input: "save/RestoreV2:98"
  attr {
    key: "T"
    value {
      type: DT_FLOAT
    }
  }
  attr {
    key: "_class"
    value {
      list {
        s: "loc:@dnn/hiddenlayer_5/kernel/part_0"
      }
    }
  }
  attr {
    key: "_output_shapes"
    value {
      list {
        shape {
          dim {
            size: 160
          }
          dim {
            size: 160
          }
        }
      }
    }
  }
  attr {
    key: "use_locking"
    value {
      b: true
    }
  }
  attr {
    key: "validate_shape"
    value {
      b: true
    }
  }
}
node {
  name: "save/Assign_99"
  op: "Assign"
  input: "dnn/dnn/hiddenlayer_5/kernel/part_0/Adam_1"
  input: "save/RestoreV2:99"
  attr {
    key: "T"
    value {
      type: DT_FLOAT
    }
  }
  attr {
    key: "_class"
    value {
      list {
        s: "loc:@dnn/hiddenlayer_5/kernel/part_0"
      }
    }
  }
  attr {
    key: "_output_shapes"
    value {
      list {
        shape {
          dim {
            size: 160
          }
          dim {
            size: 160
          }
        }
      }
    }
  }
  attr {
    key: "use_locking"
    value {
      b: true
    }
  }
  attr {
    key: "validate_shape"
    value {
      b: true
    }
  }
}
node {
  name: "save/Assign_100"
  op: "Assign"
  input: "dnn/hiddenlayer_6/batchnorm_6/beta/part_0"
  input: "save/RestoreV2:100"
  attr {
    key: "T"
    value {
      type: DT_FLOAT
    }
  }
  attr {
    key: "_class"
    value {
      list {
        s: "loc:@dnn/hiddenlayer_6/batchnorm_6/beta/part_0"
      }
    }
  }
  attr {
    key: "_output_shapes"
    value {
      list {
        shape {
          dim {
            size: 140
          }
        }
      }
    }
  }
  attr {
    key: "use_locking"
    value {
      b: true
    }
  }
  attr {
    key: "validate_shape"
    value {
      b: true
    }
  }
}
node {
  name: "save/Assign_101"
  op: "Assign"
  input: "dnn/dnn/hiddenlayer_6/batchnorm_6/beta/part_0/Adam"
  input: "save/RestoreV2:101"
  attr {
    key: "T"
    value {
      type: DT_FLOAT
    }
  }
  attr {
    key: "_class"
    value {
      list {
        s: "loc:@dnn/hiddenlayer_6/batchnorm_6/beta/part_0"
      }
    }
  }
  attr {
    key: "_output_shapes"
    value {
      list {
        shape {
          dim {
            size: 140
          }
        }
      }
    }
  }
  attr {
    key: "use_locking"
    value {
      b: true
    }
  }
  attr {
    key: "validate_shape"
    value {
      b: true
    }
  }
}
node {
  name: "save/Assign_102"
  op: "Assign"
  input: "dnn/dnn/hiddenlayer_6/batchnorm_6/beta/part_0/Adam_1"
  input: "save/RestoreV2:102"
  attr {
    key: "T"
    value {
      type: DT_FLOAT
    }
  }
  attr {
    key: "_class"
    value {
      list {
        s: "loc:@dnn/hiddenlayer_6/batchnorm_6/beta/part_0"
      }
    }
  }
  attr {
    key: "_output_shapes"
    value {
      list {
        shape {
          dim {
            size: 140
          }
        }
      }
    }
  }
  attr {
    key: "use_locking"
    value {
      b: true
    }
  }
  attr {
    key: "validate_shape"
    value {
      b: true
    }
  }
}
node {
  name: "save/Assign_103"
  op: "Assign"
  input: "dnn/hiddenlayer_6/batchnorm_6/gamma/part_0"
  input: "save/RestoreV2:103"
  attr {
    key: "T"
    value {
      type: DT_FLOAT
    }
  }
  attr {
    key: "_class"
    value {
      list {
        s: "loc:@dnn/hiddenlayer_6/batchnorm_6/gamma/part_0"
      }
    }
  }
  attr {
    key: "_output_shapes"
    value {
      list {
        shape {
          dim {
            size: 140
          }
        }
      }
    }
  }
  attr {
    key: "use_locking"
    value {
      b: true
    }
  }
  attr {
    key: "validate_shape"
    value {
      b: true
    }
  }
}
node {
  name: "save/Assign_104"
  op: "Assign"
  input: "dnn/dnn/hiddenlayer_6/batchnorm_6/gamma/part_0/Adam"
  input: "save/RestoreV2:104"
  attr {
    key: "T"
    value {
      type: DT_FLOAT
    }
  }
  attr {
    key: "_class"
    value {
      list {
        s: "loc:@dnn/hiddenlayer_6/batchnorm_6/gamma/part_0"
      }
    }
  }
  attr {
    key: "_output_shapes"
    value {
      list {
        shape {
          dim {
            size: 140
          }
        }
      }
    }
  }
  attr {
    key: "use_locking"
    value {
      b: true
    }
  }
  attr {
    key: "validate_shape"
    value {
      b: true
    }
  }
}
node {
  name: "save/Assign_105"
  op: "Assign"
  input: "dnn/dnn/hiddenlayer_6/batchnorm_6/gamma/part_0/Adam_1"
  input: "save/RestoreV2:105"
  attr {
    key: "T"
    value {
      type: DT_FLOAT
    }
  }
  attr {
    key: "_class"
    value {
      list {
        s: "loc:@dnn/hiddenlayer_6/batchnorm_6/gamma/part_0"
      }
    }
  }
  attr {
    key: "_output_shapes"
    value {
      list {
        shape {
          dim {
            size: 140
          }
        }
      }
    }
  }
  attr {
    key: "use_locking"
    value {
      b: true
    }
  }
  attr {
    key: "validate_shape"
    value {
      b: true
    }
  }
}
node {
  name: "save/Assign_106"
  op: "Assign"
  input: "dnn/hiddenlayer_6/batchnorm_6/moving_mean"
  input: "save/RestoreV2:106"
  attr {
    key: "T"
    value {
      type: DT_FLOAT
    }
  }
  attr {
    key: "_class"
    value {
      list {
        s: "loc:@dnn/hiddenlayer_6/batchnorm_6/moving_mean"
      }
    }
  }
  attr {
    key: "_output_shapes"
    value {
      list {
        shape {
          dim {
            size: 140
          }
        }
      }
    }
  }
  attr {
    key: "use_locking"
    value {
      b: true
    }
  }
  attr {
    key: "validate_shape"
    value {
      b: true
    }
  }
}
node {
  name: "save/Assign_107"
  op: "Assign"
  input: "dnn/hiddenlayer_6/batchnorm_6/moving_variance"
  input: "save/RestoreV2:107"
  attr {
    key: "T"
    value {
      type: DT_FLOAT
    }
  }
  attr {
    key: "_class"
    value {
      list {
        s: "loc:@dnn/hiddenlayer_6/batchnorm_6/moving_variance"
      }
    }
  }
  attr {
    key: "_output_shapes"
    value {
      list {
        shape {
          dim {
            size: 140
          }
        }
      }
    }
  }
  attr {
    key: "use_locking"
    value {
      b: true
    }
  }
  attr {
    key: "validate_shape"
    value {
      b: true
    }
  }
}
node {
  name: "save/Assign_108"
  op: "Assign"
  input: "dnn/hiddenlayer_6/bias/part_0"
  input: "save/RestoreV2:108"
  attr {
    key: "T"
    value {
      type: DT_FLOAT
    }
  }
  attr {
    key: "_class"
    value {
      list {
        s: "loc:@dnn/hiddenlayer_6/bias/part_0"
      }
    }
  }
  attr {
    key: "_output_shapes"
    value {
      list {
        shape {
          dim {
            size: 140
          }
        }
      }
    }
  }
  attr {
    key: "use_locking"
    value {
      b: true
    }
  }
  attr {
    key: "validate_shape"
    value {
      b: true
    }
  }
}
node {
  name: "save/Assign_109"
  op: "Assign"
  input: "dnn/dnn/hiddenlayer_6/bias/part_0/Adam"
  input: "save/RestoreV2:109"
  attr {
    key: "T"
    value {
      type: DT_FLOAT
    }
  }
  attr {
    key: "_class"
    value {
      list {
        s: "loc:@dnn/hiddenlayer_6/bias/part_0"
      }
    }
  }
  attr {
    key: "_output_shapes"
    value {
      list {
        shape {
          dim {
            size: 140
          }
        }
      }
    }
  }
  attr {
    key: "use_locking"
    value {
      b: true
    }
  }
  attr {
    key: "validate_shape"
    value {
      b: true
    }
  }
}
node {
  name: "save/Assign_110"
  op: "Assign"
  input: "dnn/dnn/hiddenlayer_6/bias/part_0/Adam_1"
  input: "save/RestoreV2:110"
  attr {
    key: "T"
    value {
      type: DT_FLOAT
    }
  }
  attr {
    key: "_class"
    value {
      list {
        s: "loc:@dnn/hiddenlayer_6/bias/part_0"
      }
    }
  }
  attr {
    key: "_output_shapes"
    value {
      list {
        shape {
          dim {
            size: 140
          }
        }
      }
    }
  }
  attr {
    key: "use_locking"
    value {
      b: true
    }
  }
  attr {
    key: "validate_shape"
    value {
      b: true
    }
  }
}
node {
  name: "save/Assign_111"
  op: "Assign"
  input: "dnn/hiddenlayer_6/kernel/part_0"
  input: "save/RestoreV2:111"
  attr {
    key: "T"
    value {
      type: DT_FLOAT
    }
  }
  attr {
    key: "_class"
    value {
      list {
        s: "loc:@dnn/hiddenlayer_6/kernel/part_0"
      }
    }
  }
  attr {
    key: "_output_shapes"
    value {
      list {
        shape {
          dim {
            size: 160
          }
          dim {
            size: 140
          }
        }
      }
    }
  }
  attr {
    key: "use_locking"
    value {
      b: true
    }
  }
  attr {
    key: "validate_shape"
    value {
      b: true
    }
  }
}
node {
  name: "save/Assign_112"
  op: "Assign"
  input: "dnn/dnn/hiddenlayer_6/kernel/part_0/Adam"
  input: "save/RestoreV2:112"
  attr {
    key: "T"
    value {
      type: DT_FLOAT
    }
  }
  attr {
    key: "_class"
    value {
      list {
        s: "loc:@dnn/hiddenlayer_6/kernel/part_0"
      }
    }
  }
  attr {
    key: "_output_shapes"
    value {
      list {
        shape {
          dim {
            size: 160
          }
          dim {
            size: 140
          }
        }
      }
    }
  }
  attr {
    key: "use_locking"
    value {
      b: true
    }
  }
  attr {
    key: "validate_shape"
    value {
      b: true
    }
  }
}
node {
  name: "save/Assign_113"
  op: "Assign"
  input: "dnn/dnn/hiddenlayer_6/kernel/part_0/Adam_1"
  input: "save/RestoreV2:113"
  attr {
    key: "T"
    value {
      type: DT_FLOAT
    }
  }
  attr {
    key: "_class"
    value {
      list {
        s: "loc:@dnn/hiddenlayer_6/kernel/part_0"
      }
    }
  }
  attr {
    key: "_output_shapes"
    value {
      list {
        shape {
          dim {
            size: 160
          }
          dim {
            size: 140
          }
        }
      }
    }
  }
  attr {
    key: "use_locking"
    value {
      b: true
    }
  }
  attr {
    key: "validate_shape"
    value {
      b: true
    }
  }
}
node {
  name: "save/Assign_114"
  op: "Assign"
  input: "dnn/hiddenlayer_7/batchnorm_7/beta/part_0"
  input: "save/RestoreV2:114"
  attr {
    key: "T"
    value {
      type: DT_FLOAT
    }
  }
  attr {
    key: "_class"
    value {
      list {
        s: "loc:@dnn/hiddenlayer_7/batchnorm_7/beta/part_0"
      }
    }
  }
  attr {
    key: "_output_shapes"
    value {
      list {
        shape {
          dim {
            size: 140
          }
        }
      }
    }
  }
  attr {
    key: "use_locking"
    value {
      b: true
    }
  }
  attr {
    key: "validate_shape"
    value {
      b: true
    }
  }
}
node {
  name: "save/Assign_115"
  op: "Assign"
  input: "dnn/dnn/hiddenlayer_7/batchnorm_7/beta/part_0/Adam"
  input: "save/RestoreV2:115"
  attr {
    key: "T"
    value {
      type: DT_FLOAT
    }
  }
  attr {
    key: "_class"
    value {
      list {
        s: "loc:@dnn/hiddenlayer_7/batchnorm_7/beta/part_0"
      }
    }
  }
  attr {
    key: "_output_shapes"
    value {
      list {
        shape {
          dim {
            size: 140
          }
        }
      }
    }
  }
  attr {
    key: "use_locking"
    value {
      b: true
    }
  }
  attr {
    key: "validate_shape"
    value {
      b: true
    }
  }
}
node {
  name: "save/Assign_116"
  op: "Assign"
  input: "dnn/dnn/hiddenlayer_7/batchnorm_7/beta/part_0/Adam_1"
  input: "save/RestoreV2:116"
  attr {
    key: "T"
    value {
      type: DT_FLOAT
    }
  }
  attr {
    key: "_class"
    value {
      list {
        s: "loc:@dnn/hiddenlayer_7/batchnorm_7/beta/part_0"
      }
    }
  }
  attr {
    key: "_output_shapes"
    value {
      list {
        shape {
          dim {
            size: 140
          }
        }
      }
    }
  }
  attr {
    key: "use_locking"
    value {
      b: true
    }
  }
  attr {
    key: "validate_shape"
    value {
      b: true
    }
  }
}
node {
  name: "save/Assign_117"
  op: "Assign"
  input: "dnn/hiddenlayer_7/batchnorm_7/gamma/part_0"
  input: "save/RestoreV2:117"
  attr {
    key: "T"
    value {
      type: DT_FLOAT
    }
  }
  attr {
    key: "_class"
    value {
      list {
        s: "loc:@dnn/hiddenlayer_7/batchnorm_7/gamma/part_0"
      }
    }
  }
  attr {
    key: "_output_shapes"
    value {
      list {
        shape {
          dim {
            size: 140
          }
        }
      }
    }
  }
  attr {
    key: "use_locking"
    value {
      b: true
    }
  }
  attr {
    key: "validate_shape"
    value {
      b: true
    }
  }
}
node {
  name: "save/Assign_118"
  op: "Assign"
  input: "dnn/dnn/hiddenlayer_7/batchnorm_7/gamma/part_0/Adam"
  input: "save/RestoreV2:118"
  attr {
    key: "T"
    value {
      type: DT_FLOAT
    }
  }
  attr {
    key: "_class"
    value {
      list {
        s: "loc:@dnn/hiddenlayer_7/batchnorm_7/gamma/part_0"
      }
    }
  }
  attr {
    key: "_output_shapes"
    value {
      list {
        shape {
          dim {
            size: 140
          }
        }
      }
    }
  }
  attr {
    key: "use_locking"
    value {
      b: true
    }
  }
  attr {
    key: "validate_shape"
    value {
      b: true
    }
  }
}
node {
  name: "save/Assign_119"
  op: "Assign"
  input: "dnn/dnn/hiddenlayer_7/batchnorm_7/gamma/part_0/Adam_1"
  input: "save/RestoreV2:119"
  attr {
    key: "T"
    value {
      type: DT_FLOAT
    }
  }
  attr {
    key: "_class"
    value {
      list {
        s: "loc:@dnn/hiddenlayer_7/batchnorm_7/gamma/part_0"
      }
    }
  }
  attr {
    key: "_output_shapes"
    value {
      list {
        shape {
          dim {
            size: 140
          }
        }
      }
    }
  }
  attr {
    key: "use_locking"
    value {
      b: true
    }
  }
  attr {
    key: "validate_shape"
    value {
      b: true
    }
  }
}
node {
  name: "save/Assign_120"
  op: "Assign"
  input: "dnn/hiddenlayer_7/batchnorm_7/moving_mean"
  input: "save/RestoreV2:120"
  attr {
    key: "T"
    value {
      type: DT_FLOAT
    }
  }
  attr {
    key: "_class"
    value {
      list {
        s: "loc:@dnn/hiddenlayer_7/batchnorm_7/moving_mean"
      }
    }
  }
  attr {
    key: "_output_shapes"
    value {
      list {
        shape {
          dim {
            size: 140
          }
        }
      }
    }
  }
  attr {
    key: "use_locking"
    value {
      b: true
    }
  }
  attr {
    key: "validate_shape"
    value {
      b: true
    }
  }
}
node {
  name: "save/Assign_121"
  op: "Assign"
  input: "dnn/hiddenlayer_7/batchnorm_7/moving_variance"
  input: "save/RestoreV2:121"
  attr {
    key: "T"
    value {
      type: DT_FLOAT
    }
  }
  attr {
    key: "_class"
    value {
      list {
        s: "loc:@dnn/hiddenlayer_7/batchnorm_7/moving_variance"
      }
    }
  }
  attr {
    key: "_output_shapes"
    value {
      list {
        shape {
          dim {
            size: 140
          }
        }
      }
    }
  }
  attr {
    key: "use_locking"
    value {
      b: true
    }
  }
  attr {
    key: "validate_shape"
    value {
      b: true
    }
  }
}
node {
  name: "save/Assign_122"
  op: "Assign"
  input: "dnn/hiddenlayer_7/bias/part_0"
  input: "save/RestoreV2:122"
  attr {
    key: "T"
    value {
      type: DT_FLOAT
    }
  }
  attr {
    key: "_class"
    value {
      list {
        s: "loc:@dnn/hiddenlayer_7/bias/part_0"
      }
    }
  }
  attr {
    key: "_output_shapes"
    value {
      list {
        shape {
          dim {
            size: 140
          }
        }
      }
    }
  }
  attr {
    key: "use_locking"
    value {
      b: true
    }
  }
  attr {
    key: "validate_shape"
    value {
      b: true
    }
  }
}
node {
  name: "save/Assign_123"
  op: "Assign"
  input: "dnn/dnn/hiddenlayer_7/bias/part_0/Adam"
  input: "save/RestoreV2:123"
  attr {
    key: "T"
    value {
      type: DT_FLOAT
    }
  }
  attr {
    key: "_class"
    value {
      list {
        s: "loc:@dnn/hiddenlayer_7/bias/part_0"
      }
    }
  }
  attr {
    key: "_output_shapes"
    value {
      list {
        shape {
          dim {
            size: 140
          }
        }
      }
    }
  }
  attr {
    key: "use_locking"
    value {
      b: true
    }
  }
  attr {
    key: "validate_shape"
    value {
      b: true
    }
  }
}
node {
  name: "save/Assign_124"
  op: "Assign"
  input: "dnn/dnn/hiddenlayer_7/bias/part_0/Adam_1"
  input: "save/RestoreV2:124"
  attr {
    key: "T"
    value {
      type: DT_FLOAT
    }
  }
  attr {
    key: "_class"
    value {
      list {
        s: "loc:@dnn/hiddenlayer_7/bias/part_0"
      }
    }
  }
  attr {
    key: "_output_shapes"
    value {
      list {
        shape {
          dim {
            size: 140
          }
        }
      }
    }
  }
  attr {
    key: "use_locking"
    value {
      b: true
    }
  }
  attr {
    key: "validate_shape"
    value {
      b: true
    }
  }
}
node {
  name: "save/Assign_125"
  op: "Assign"
  input: "dnn/hiddenlayer_7/kernel/part_0"
  input: "save/RestoreV2:125"
  attr {
    key: "T"
    value {
      type: DT_FLOAT
    }
  }
  attr {
    key: "_class"
    value {
      list {
        s: "loc:@dnn/hiddenlayer_7/kernel/part_0"
      }
    }
  }
  attr {
    key: "_output_shapes"
    value {
      list {
        shape {
          dim {
            size: 140
          }
          dim {
            size: 140
          }
        }
      }
    }
  }
  attr {
    key: "use_locking"
    value {
      b: true
    }
  }
  attr {
    key: "validate_shape"
    value {
      b: true
    }
  }
}
node {
  name: "save/Assign_126"
  op: "Assign"
  input: "dnn/dnn/hiddenlayer_7/kernel/part_0/Adam"
  input: "save/RestoreV2:126"
  attr {
    key: "T"
    value {
      type: DT_FLOAT
    }
  }
  attr {
    key: "_class"
    value {
      list {
        s: "loc:@dnn/hiddenlayer_7/kernel/part_0"
      }
    }
  }
  attr {
    key: "_output_shapes"
    value {
      list {
        shape {
          dim {
            size: 140
          }
          dim {
            size: 140
          }
        }
      }
    }
  }
  attr {
    key: "use_locking"
    value {
      b: true
    }
  }
  attr {
    key: "validate_shape"
    value {
      b: true
    }
  }
}
node {
  name: "save/Assign_127"
  op: "Assign"
  input: "dnn/dnn/hiddenlayer_7/kernel/part_0/Adam_1"
  input: "save/RestoreV2:127"
  attr {
    key: "T"
    value {
      type: DT_FLOAT
    }
  }
  attr {
    key: "_class"
    value {
      list {
        s: "loc:@dnn/hiddenlayer_7/kernel/part_0"
      }
    }
  }
  attr {
    key: "_output_shapes"
    value {
      list {
        shape {
          dim {
            size: 140
          }
          dim {
            size: 140
          }
        }
      }
    }
  }
  attr {
    key: "use_locking"
    value {
      b: true
    }
  }
  attr {
    key: "validate_shape"
    value {
      b: true
    }
  }
}
node {
  name: "save/Assign_128"
  op: "Assign"
  input: "dnn/hiddenlayer_8/batchnorm_8/beta/part_0"
  input: "save/RestoreV2:128"
  attr {
    key: "T"
    value {
      type: DT_FLOAT
    }
  }
  attr {
    key: "_class"
    value {
      list {
        s: "loc:@dnn/hiddenlayer_8/batchnorm_8/beta/part_0"
      }
    }
  }
  attr {
    key: "_output_shapes"
    value {
      list {
        shape {
          dim {
            size: 140
          }
        }
      }
    }
  }
  attr {
    key: "use_locking"
    value {
      b: true
    }
  }
  attr {
    key: "validate_shape"
    value {
      b: true
    }
  }
}
node {
  name: "save/Assign_129"
  op: "Assign"
  input: "dnn/dnn/hiddenlayer_8/batchnorm_8/beta/part_0/Adam"
  input: "save/RestoreV2:129"
  attr {
    key: "T"
    value {
      type: DT_FLOAT
    }
  }
  attr {
    key: "_class"
    value {
      list {
        s: "loc:@dnn/hiddenlayer_8/batchnorm_8/beta/part_0"
      }
    }
  }
  attr {
    key: "_output_shapes"
    value {
      list {
        shape {
          dim {
            size: 140
          }
        }
      }
    }
  }
  attr {
    key: "use_locking"
    value {
      b: true
    }
  }
  attr {
    key: "validate_shape"
    value {
      b: true
    }
  }
}
node {
  name: "save/Assign_130"
  op: "Assign"
  input: "dnn/dnn/hiddenlayer_8/batchnorm_8/beta/part_0/Adam_1"
  input: "save/RestoreV2:130"
  attr {
    key: "T"
    value {
      type: DT_FLOAT
    }
  }
  attr {
    key: "_class"
    value {
      list {
        s: "loc:@dnn/hiddenlayer_8/batchnorm_8/beta/part_0"
      }
    }
  }
  attr {
    key: "_output_shapes"
    value {
      list {
        shape {
          dim {
            size: 140
          }
        }
      }
    }
  }
  attr {
    key: "use_locking"
    value {
      b: true
    }
  }
  attr {
    key: "validate_shape"
    value {
      b: true
    }
  }
}
node {
  name: "save/Assign_131"
  op: "Assign"
  input: "dnn/hiddenlayer_8/batchnorm_8/gamma/part_0"
  input: "save/RestoreV2:131"
  attr {
    key: "T"
    value {
      type: DT_FLOAT
    }
  }
  attr {
    key: "_class"
    value {
      list {
        s: "loc:@dnn/hiddenlayer_8/batchnorm_8/gamma/part_0"
      }
    }
  }
  attr {
    key: "_output_shapes"
    value {
      list {
        shape {
          dim {
            size: 140
          }
        }
      }
    }
  }
  attr {
    key: "use_locking"
    value {
      b: true
    }
  }
  attr {
    key: "validate_shape"
    value {
      b: true
    }
  }
}
node {
  name: "save/Assign_132"
  op: "Assign"
  input: "dnn/dnn/hiddenlayer_8/batchnorm_8/gamma/part_0/Adam"
  input: "save/RestoreV2:132"
  attr {
    key: "T"
    value {
      type: DT_FLOAT
    }
  }
  attr {
    key: "_class"
    value {
      list {
        s: "loc:@dnn/hiddenlayer_8/batchnorm_8/gamma/part_0"
      }
    }
  }
  attr {
    key: "_output_shapes"
    value {
      list {
        shape {
          dim {
            size: 140
          }
        }
      }
    }
  }
  attr {
    key: "use_locking"
    value {
      b: true
    }
  }
  attr {
    key: "validate_shape"
    value {
      b: true
    }
  }
}
node {
  name: "save/Assign_133"
  op: "Assign"
  input: "dnn/dnn/hiddenlayer_8/batchnorm_8/gamma/part_0/Adam_1"
  input: "save/RestoreV2:133"
  attr {
    key: "T"
    value {
      type: DT_FLOAT
    }
  }
  attr {
    key: "_class"
    value {
      list {
        s: "loc:@dnn/hiddenlayer_8/batchnorm_8/gamma/part_0"
      }
    }
  }
  attr {
    key: "_output_shapes"
    value {
      list {
        shape {
          dim {
            size: 140
          }
        }
      }
    }
  }
  attr {
    key: "use_locking"
    value {
      b: true
    }
  }
  attr {
    key: "validate_shape"
    value {
      b: true
    }
  }
}
node {
  name: "save/Assign_134"
  op: "Assign"
  input: "dnn/hiddenlayer_8/batchnorm_8/moving_mean"
  input: "save/RestoreV2:134"
  attr {
    key: "T"
    value {
      type: DT_FLOAT
    }
  }
  attr {
    key: "_class"
    value {
      list {
        s: "loc:@dnn/hiddenlayer_8/batchnorm_8/moving_mean"
      }
    }
  }
  attr {
    key: "_output_shapes"
    value {
      list {
        shape {
          dim {
            size: 140
          }
        }
      }
    }
  }
  attr {
    key: "use_locking"
    value {
      b: true
    }
  }
  attr {
    key: "validate_shape"
    value {
      b: true
    }
  }
}
node {
  name: "save/Assign_135"
  op: "Assign"
  input: "dnn/hiddenlayer_8/batchnorm_8/moving_variance"
  input: "save/RestoreV2:135"
  attr {
    key: "T"
    value {
      type: DT_FLOAT
    }
  }
  attr {
    key: "_class"
    value {
      list {
        s: "loc:@dnn/hiddenlayer_8/batchnorm_8/moving_variance"
      }
    }
  }
  attr {
    key: "_output_shapes"
    value {
      list {
        shape {
          dim {
            size: 140
          }
        }
      }
    }
  }
  attr {
    key: "use_locking"
    value {
      b: true
    }
  }
  attr {
    key: "validate_shape"
    value {
      b: true
    }
  }
}
node {
  name: "save/Assign_136"
  op: "Assign"
  input: "dnn/hiddenlayer_8/bias/part_0"
  input: "save/RestoreV2:136"
  attr {
    key: "T"
    value {
      type: DT_FLOAT
    }
  }
  attr {
    key: "_class"
    value {
      list {
        s: "loc:@dnn/hiddenlayer_8/bias/part_0"
      }
    }
  }
  attr {
    key: "_output_shapes"
    value {
      list {
        shape {
          dim {
            size: 140
          }
        }
      }
    }
  }
  attr {
    key: "use_locking"
    value {
      b: true
    }
  }
  attr {
    key: "validate_shape"
    value {
      b: true
    }
  }
}
node {
  name: "save/Assign_137"
  op: "Assign"
  input: "dnn/dnn/hiddenlayer_8/bias/part_0/Adam"
  input: "save/RestoreV2:137"
  attr {
    key: "T"
    value {
      type: DT_FLOAT
    }
  }
  attr {
    key: "_class"
    value {
      list {
        s: "loc:@dnn/hiddenlayer_8/bias/part_0"
      }
    }
  }
  attr {
    key: "_output_shapes"
    value {
      list {
        shape {
          dim {
            size: 140
          }
        }
      }
    }
  }
  attr {
    key: "use_locking"
    value {
      b: true
    }
  }
  attr {
    key: "validate_shape"
    value {
      b: true
    }
  }
}
node {
  name: "save/Assign_138"
  op: "Assign"
  input: "dnn/dnn/hiddenlayer_8/bias/part_0/Adam_1"
  input: "save/RestoreV2:138"
  attr {
    key: "T"
    value {
      type: DT_FLOAT
    }
  }
  attr {
    key: "_class"
    value {
      list {
        s: "loc:@dnn/hiddenlayer_8/bias/part_0"
      }
    }
  }
  attr {
    key: "_output_shapes"
    value {
      list {
        shape {
          dim {
            size: 140
          }
        }
      }
    }
  }
  attr {
    key: "use_locking"
    value {
      b: true
    }
  }
  attr {
    key: "validate_shape"
    value {
      b: true
    }
  }
}
node {
  name: "save/Assign_139"
  op: "Assign"
  input: "dnn/hiddenlayer_8/kernel/part_0"
  input: "save/RestoreV2:139"
  attr {
    key: "T"
    value {
      type: DT_FLOAT
    }
  }
  attr {
    key: "_class"
    value {
      list {
        s: "loc:@dnn/hiddenlayer_8/kernel/part_0"
      }
    }
  }
  attr {
    key: "_output_shapes"
    value {
      list {
        shape {
          dim {
            size: 140
          }
          dim {
            size: 140
          }
        }
      }
    }
  }
  attr {
    key: "use_locking"
    value {
      b: true
    }
  }
  attr {
    key: "validate_shape"
    value {
      b: true
    }
  }
}
node {
  name: "save/Assign_140"
  op: "Assign"
  input: "dnn/dnn/hiddenlayer_8/kernel/part_0/Adam"
  input: "save/RestoreV2:140"
  attr {
    key: "T"
    value {
      type: DT_FLOAT
    }
  }
  attr {
    key: "_class"
    value {
      list {
        s: "loc:@dnn/hiddenlayer_8/kernel/part_0"
      }
    }
  }
  attr {
    key: "_output_shapes"
    value {
      list {
        shape {
          dim {
            size: 140
          }
          dim {
            size: 140
          }
        }
      }
    }
  }
  attr {
    key: "use_locking"
    value {
      b: true
    }
  }
  attr {
    key: "validate_shape"
    value {
      b: true
    }
  }
}
node {
  name: "save/Assign_141"
  op: "Assign"
  input: "dnn/dnn/hiddenlayer_8/kernel/part_0/Adam_1"
  input: "save/RestoreV2:141"
  attr {
    key: "T"
    value {
      type: DT_FLOAT
    }
  }
  attr {
    key: "_class"
    value {
      list {
        s: "loc:@dnn/hiddenlayer_8/kernel/part_0"
      }
    }
  }
  attr {
    key: "_output_shapes"
    value {
      list {
        shape {
          dim {
            size: 140
          }
          dim {
            size: 140
          }
        }
      }
    }
  }
  attr {
    key: "use_locking"
    value {
      b: true
    }
  }
  attr {
    key: "validate_shape"
    value {
      b: true
    }
  }
}
node {
  name: "save/Assign_142"
  op: "Assign"
  input: "dnn/hiddenlayer_9/batchnorm_9/beta/part_0"
  input: "save/RestoreV2:142"
  attr {
    key: "T"
    value {
      type: DT_FLOAT
    }
  }
  attr {
    key: "_class"
    value {
      list {
        s: "loc:@dnn/hiddenlayer_9/batchnorm_9/beta/part_0"
      }
    }
  }
  attr {
    key: "_output_shapes"
    value {
      list {
        shape {
          dim {
            size: 120
          }
        }
      }
    }
  }
  attr {
    key: "use_locking"
    value {
      b: true
    }
  }
  attr {
    key: "validate_shape"
    value {
      b: true
    }
  }
}
node {
  name: "save/Assign_143"
  op: "Assign"
  input: "dnn/dnn/hiddenlayer_9/batchnorm_9/beta/part_0/Adam"
  input: "save/RestoreV2:143"
  attr {
    key: "T"
    value {
      type: DT_FLOAT
    }
  }
  attr {
    key: "_class"
    value {
      list {
        s: "loc:@dnn/hiddenlayer_9/batchnorm_9/beta/part_0"
      }
    }
  }
  attr {
    key: "_output_shapes"
    value {
      list {
        shape {
          dim {
            size: 120
          }
        }
      }
    }
  }
  attr {
    key: "use_locking"
    value {
      b: true
    }
  }
  attr {
    key: "validate_shape"
    value {
      b: true
    }
  }
}
node {
  name: "save/Assign_144"
  op: "Assign"
  input: "dnn/dnn/hiddenlayer_9/batchnorm_9/beta/part_0/Adam_1"
  input: "save/RestoreV2:144"
  attr {
    key: "T"
    value {
      type: DT_FLOAT
    }
  }
  attr {
    key: "_class"
    value {
      list {
        s: "loc:@dnn/hiddenlayer_9/batchnorm_9/beta/part_0"
      }
    }
  }
  attr {
    key: "_output_shapes"
    value {
      list {
        shape {
          dim {
            size: 120
          }
        }
      }
    }
  }
  attr {
    key: "use_locking"
    value {
      b: true
    }
  }
  attr {
    key: "validate_shape"
    value {
      b: true
    }
  }
}
node {
  name: "save/Assign_145"
  op: "Assign"
  input: "dnn/hiddenlayer_9/batchnorm_9/gamma/part_0"
  input: "save/RestoreV2:145"
  attr {
    key: "T"
    value {
      type: DT_FLOAT
    }
  }
  attr {
    key: "_class"
    value {
      list {
        s: "loc:@dnn/hiddenlayer_9/batchnorm_9/gamma/part_0"
      }
    }
  }
  attr {
    key: "_output_shapes"
    value {
      list {
        shape {
          dim {
            size: 120
          }
        }
      }
    }
  }
  attr {
    key: "use_locking"
    value {
      b: true
    }
  }
  attr {
    key: "validate_shape"
    value {
      b: true
    }
  }
}
node {
  name: "save/Assign_146"
  op: "Assign"
  input: "dnn/dnn/hiddenlayer_9/batchnorm_9/gamma/part_0/Adam"
  input: "save/RestoreV2:146"
  attr {
    key: "T"
    value {
      type: DT_FLOAT
    }
  }
  attr {
    key: "_class"
    value {
      list {
        s: "loc:@dnn/hiddenlayer_9/batchnorm_9/gamma/part_0"
      }
    }
  }
  attr {
    key: "_output_shapes"
    value {
      list {
        shape {
          dim {
            size: 120
          }
        }
      }
    }
  }
  attr {
    key: "use_locking"
    value {
      b: true
    }
  }
  attr {
    key: "validate_shape"
    value {
      b: true
    }
  }
}
node {
  name: "save/Assign_147"
  op: "Assign"
  input: "dnn/dnn/hiddenlayer_9/batchnorm_9/gamma/part_0/Adam_1"
  input: "save/RestoreV2:147"
  attr {
    key: "T"
    value {
      type: DT_FLOAT
    }
  }
  attr {
    key: "_class"
    value {
      list {
        s: "loc:@dnn/hiddenlayer_9/batchnorm_9/gamma/part_0"
      }
    }
  }
  attr {
    key: "_output_shapes"
    value {
      list {
        shape {
          dim {
            size: 120
          }
        }
      }
    }
  }
  attr {
    key: "use_locking"
    value {
      b: true
    }
  }
  attr {
    key: "validate_shape"
    value {
      b: true
    }
  }
}
node {
  name: "save/Assign_148"
  op: "Assign"
  input: "dnn/hiddenlayer_9/batchnorm_9/moving_mean"
  input: "save/RestoreV2:148"
  attr {
    key: "T"
    value {
      type: DT_FLOAT
    }
  }
  attr {
    key: "_class"
    value {
      list {
        s: "loc:@dnn/hiddenlayer_9/batchnorm_9/moving_mean"
      }
    }
  }
  attr {
    key: "_output_shapes"
    value {
      list {
        shape {
          dim {
            size: 120
          }
        }
      }
    }
  }
  attr {
    key: "use_locking"
    value {
      b: true
    }
  }
  attr {
    key: "validate_shape"
    value {
      b: true
    }
  }
}
node {
  name: "save/Assign_149"
  op: "Assign"
  input: "dnn/hiddenlayer_9/batchnorm_9/moving_variance"
  input: "save/RestoreV2:149"
  attr {
    key: "T"
    value {
      type: DT_FLOAT
    }
  }
  attr {
    key: "_class"
    value {
      list {
        s: "loc:@dnn/hiddenlayer_9/batchnorm_9/moving_variance"
      }
    }
  }
  attr {
    key: "_output_shapes"
    value {
      list {
        shape {
          dim {
            size: 120
          }
        }
      }
    }
  }
  attr {
    key: "use_locking"
    value {
      b: true
    }
  }
  attr {
    key: "validate_shape"
    value {
      b: true
    }
  }
}
node {
  name: "save/Assign_150"
  op: "Assign"
  input: "dnn/hiddenlayer_9/bias/part_0"
  input: "save/RestoreV2:150"
  attr {
    key: "T"
    value {
      type: DT_FLOAT
    }
  }
  attr {
    key: "_class"
    value {
      list {
        s: "loc:@dnn/hiddenlayer_9/bias/part_0"
      }
    }
  }
  attr {
    key: "_output_shapes"
    value {
      list {
        shape {
          dim {
            size: 120
          }
        }
      }
    }
  }
  attr {
    key: "use_locking"
    value {
      b: true
    }
  }
  attr {
    key: "validate_shape"
    value {
      b: true
    }
  }
}
node {
  name: "save/Assign_151"
  op: "Assign"
  input: "dnn/dnn/hiddenlayer_9/bias/part_0/Adam"
  input: "save/RestoreV2:151"
  attr {
    key: "T"
    value {
      type: DT_FLOAT
    }
  }
  attr {
    key: "_class"
    value {
      list {
        s: "loc:@dnn/hiddenlayer_9/bias/part_0"
      }
    }
  }
  attr {
    key: "_output_shapes"
    value {
      list {
        shape {
          dim {
            size: 120
          }
        }
      }
    }
  }
  attr {
    key: "use_locking"
    value {
      b: true
    }
  }
  attr {
    key: "validate_shape"
    value {
      b: true
    }
  }
}
node {
  name: "save/Assign_152"
  op: "Assign"
  input: "dnn/dnn/hiddenlayer_9/bias/part_0/Adam_1"
  input: "save/RestoreV2:152"
  attr {
    key: "T"
    value {
      type: DT_FLOAT
    }
  }
  attr {
    key: "_class"
    value {
      list {
        s: "loc:@dnn/hiddenlayer_9/bias/part_0"
      }
    }
  }
  attr {
    key: "_output_shapes"
    value {
      list {
        shape {
          dim {
            size: 120
          }
        }
      }
    }
  }
  attr {
    key: "use_locking"
    value {
      b: true
    }
  }
  attr {
    key: "validate_shape"
    value {
      b: true
    }
  }
}
node {
  name: "save/Assign_153"
  op: "Assign"
  input: "dnn/hiddenlayer_9/kernel/part_0"
  input: "save/RestoreV2:153"
  attr {
    key: "T"
    value {
      type: DT_FLOAT
    }
  }
  attr {
    key: "_class"
    value {
      list {
        s: "loc:@dnn/hiddenlayer_9/kernel/part_0"
      }
    }
  }
  attr {
    key: "_output_shapes"
    value {
      list {
        shape {
          dim {
            size: 140
          }
          dim {
            size: 120
          }
        }
      }
    }
  }
  attr {
    key: "use_locking"
    value {
      b: true
    }
  }
  attr {
    key: "validate_shape"
    value {
      b: true
    }
  }
}
node {
  name: "save/Assign_154"
  op: "Assign"
  input: "dnn/dnn/hiddenlayer_9/kernel/part_0/Adam"
  input: "save/RestoreV2:154"
  attr {
    key: "T"
    value {
      type: DT_FLOAT
    }
  }
  attr {
    key: "_class"
    value {
      list {
        s: "loc:@dnn/hiddenlayer_9/kernel/part_0"
      }
    }
  }
  attr {
    key: "_output_shapes"
    value {
      list {
        shape {
          dim {
            size: 140
          }
          dim {
            size: 120
          }
        }
      }
    }
  }
  attr {
    key: "use_locking"
    value {
      b: true
    }
  }
  attr {
    key: "validate_shape"
    value {
      b: true
    }
  }
}
node {
  name: "save/Assign_155"
  op: "Assign"
  input: "dnn/dnn/hiddenlayer_9/kernel/part_0/Adam_1"
  input: "save/RestoreV2:155"
  attr {
    key: "T"
    value {
      type: DT_FLOAT
    }
  }
  attr {
    key: "_class"
    value {
      list {
        s: "loc:@dnn/hiddenlayer_9/kernel/part_0"
      }
    }
  }
  attr {
    key: "_output_shapes"
    value {
      list {
        shape {
          dim {
            size: 140
          }
          dim {
            size: 120
          }
        }
      }
    }
  }
  attr {
    key: "use_locking"
    value {
      b: true
    }
  }
  attr {
    key: "validate_shape"
    value {
      b: true
    }
  }
}
node {
  name: "save/Assign_156"
  op: "Assign"
  input: "dnn/input_from_feature_columns/input_layer/Cabin_embedding/embedding_weights/part_0"
  input: "save/RestoreV2:156"
  attr {
    key: "T"
    value {
      type: DT_FLOAT
    }
  }
  attr {
    key: "_class"
    value {
      list {
        s: "loc:@dnn/input_from_feature_columns/input_layer/Cabin_embedding/embedding_weights/part_0"
      }
    }
  }
  attr {
    key: "_output_shapes"
    value {
      list {
        shape {
          dim {
            size: 9
          }
          dim {
            size: 3
          }
        }
      }
    }
  }
  attr {
    key: "use_locking"
    value {
      b: true
    }
  }
  attr {
    key: "validate_shape"
    value {
      b: true
    }
  }
}
node {
  name: "save/Assign_157"
  op: "Assign"
  input: "dnn/dnn/input_from_feature_columns/input_layer/Cabin_embedding/embedding_weights/part_0/Adam"
  input: "save/RestoreV2:157"
  attr {
    key: "T"
    value {
      type: DT_FLOAT
    }
  }
  attr {
    key: "_class"
    value {
      list {
        s: "loc:@dnn/input_from_feature_columns/input_layer/Cabin_embedding/embedding_weights/part_0"
      }
    }
  }
  attr {
    key: "_output_shapes"
    value {
      list {
        shape {
          dim {
            size: 9
          }
          dim {
            size: 3
          }
        }
      }
    }
  }
  attr {
    key: "use_locking"
    value {
      b: true
    }
  }
  attr {
    key: "validate_shape"
    value {
      b: true
    }
  }
}
node {
  name: "save/Assign_158"
  op: "Assign"
  input: "dnn/dnn/input_from_feature_columns/input_layer/Cabin_embedding/embedding_weights/part_0/Adam_1"
  input: "save/RestoreV2:158"
  attr {
    key: "T"
    value {
      type: DT_FLOAT
    }
  }
  attr {
    key: "_class"
    value {
      list {
        s: "loc:@dnn/input_from_feature_columns/input_layer/Cabin_embedding/embedding_weights/part_0"
      }
    }
  }
  attr {
    key: "_output_shapes"
    value {
      list {
        shape {
          dim {
            size: 9
          }
          dim {
            size: 3
          }
        }
      }
    }
  }
  attr {
    key: "use_locking"
    value {
      b: true
    }
  }
  attr {
    key: "validate_shape"
    value {
      b: true
    }
  }
}
node {
  name: "save/Assign_159"
  op: "Assign"
  input: "dnn/logits/bias/part_0"
  input: "save/RestoreV2:159"
  attr {
    key: "T"
    value {
      type: DT_FLOAT
    }
  }
  attr {
    key: "_class"
    value {
      list {
        s: "loc:@dnn/logits/bias/part_0"
      }
    }
  }
  attr {
    key: "_output_shapes"
    value {
      list {
        shape {
          dim {
            size: 1
          }
        }
      }
    }
  }
  attr {
    key: "use_locking"
    value {
      b: true
    }
  }
  attr {
    key: "validate_shape"
    value {
      b: true
    }
  }
}
node {
  name: "save/Assign_160"
  op: "Assign"
  input: "dnn/dnn/logits/bias/part_0/Adam"
  input: "save/RestoreV2:160"
  attr {
    key: "T"
    value {
      type: DT_FLOAT
    }
  }
  attr {
    key: "_class"
    value {
      list {
        s: "loc:@dnn/logits/bias/part_0"
      }
    }
  }
  attr {
    key: "_output_shapes"
    value {
      list {
        shape {
          dim {
            size: 1
          }
        }
      }
    }
  }
  attr {
    key: "use_locking"
    value {
      b: true
    }
  }
  attr {
    key: "validate_shape"
    value {
      b: true
    }
  }
}
node {
  name: "save/Assign_161"
  op: "Assign"
  input: "dnn/dnn/logits/bias/part_0/Adam_1"
  input: "save/RestoreV2:161"
  attr {
    key: "T"
    value {
      type: DT_FLOAT
    }
  }
  attr {
    key: "_class"
    value {
      list {
        s: "loc:@dnn/logits/bias/part_0"
      }
    }
  }
  attr {
    key: "_output_shapes"
    value {
      list {
        shape {
          dim {
            size: 1
          }
        }
      }
    }
  }
  attr {
    key: "use_locking"
    value {
      b: true
    }
  }
  attr {
    key: "validate_shape"
    value {
      b: true
    }
  }
}
node {
  name: "save/Assign_162"
  op: "Assign"
  input: "dnn/logits/kernel/part_0"
  input: "save/RestoreV2:162"
  attr {
    key: "T"
    value {
      type: DT_FLOAT
    }
  }
  attr {
    key: "_class"
    value {
      list {
        s: "loc:@dnn/logits/kernel/part_0"
      }
    }
  }
  attr {
    key: "_output_shapes"
    value {
      list {
        shape {
          dim {
            size: 100
          }
          dim {
            size: 1
          }
        }
      }
    }
  }
  attr {
    key: "use_locking"
    value {
      b: true
    }
  }
  attr {
    key: "validate_shape"
    value {
      b: true
    }
  }
}
node {
  name: "save/Assign_163"
  op: "Assign"
  input: "dnn/dnn/logits/kernel/part_0/Adam"
  input: "save/RestoreV2:163"
  attr {
    key: "T"
    value {
      type: DT_FLOAT
    }
  }
  attr {
    key: "_class"
    value {
      list {
        s: "loc:@dnn/logits/kernel/part_0"
      }
    }
  }
  attr {
    key: "_output_shapes"
    value {
      list {
        shape {
          dim {
            size: 100
          }
          dim {
            size: 1
          }
        }
      }
    }
  }
  attr {
    key: "use_locking"
    value {
      b: true
    }
  }
  attr {
    key: "validate_shape"
    value {
      b: true
    }
  }
}
node {
  name: "save/Assign_164"
  op: "Assign"
  input: "dnn/dnn/logits/kernel/part_0/Adam_1"
  input: "save/RestoreV2:164"
  attr {
    key: "T"
    value {
      type: DT_FLOAT
    }
  }
  attr {
    key: "_class"
    value {
      list {
        s: "loc:@dnn/logits/kernel/part_0"
      }
    }
  }
  attr {
    key: "_output_shapes"
    value {
      list {
        shape {
          dim {
            size: 100
          }
          dim {
            size: 1
          }
        }
      }
    }
  }
  attr {
    key: "use_locking"
    value {
      b: true
    }
  }
  attr {
    key: "validate_shape"
    value {
      b: true
    }
  }
}
node {
  name: "save/Assign_165"
  op: "Assign"
  input: "global_step"
  input: "save/RestoreV2:165"
  attr {
    key: "T"
    value {
      type: DT_INT64
    }
  }
  attr {
    key: "_class"
    value {
      list {
        s: "loc:@global_step"
      }
    }
  }
  attr {
    key: "_output_shapes"
    value {
      list {
        shape {
        }
      }
    }
  }
  attr {
    key: "use_locking"
    value {
      b: true
    }
  }
  attr {
    key: "validate_shape"
    value {
      b: true
    }
  }
}
node {
  name: "save/restore_shard"
  op: "NoOp"
  input: "^save/Assign"
  input: "^save/Assign_1"
  input: "^save/Assign_10"
  input: "^save/Assign_100"
  input: "^save/Assign_101"
  input: "^save/Assign_102"
  input: "^save/Assign_103"
  input: "^save/Assign_104"
  input: "^save/Assign_105"
  input: "^save/Assign_106"
  input: "^save/Assign_107"
  input: "^save/Assign_108"
  input: "^save/Assign_109"
  input: "^save/Assign_11"
  input: "^save/Assign_110"
  input: "^save/Assign_111"
  input: "^save/Assign_112"
  input: "^save/Assign_113"
  input: "^save/Assign_114"
  input: "^save/Assign_115"
  input: "^save/Assign_116"
  input: "^save/Assign_117"
  input: "^save/Assign_118"
  input: "^save/Assign_119"
  input: "^save/Assign_12"
  input: "^save/Assign_120"
  input: "^save/Assign_121"
  input: "^save/Assign_122"
  input: "^save/Assign_123"
  input: "^save/Assign_124"
  input: "^save/Assign_125"
  input: "^save/Assign_126"
  input: "^save/Assign_127"
  input: "^save/Assign_128"
  input: "^save/Assign_129"
  input: "^save/Assign_13"
  input: "^save/Assign_130"
  input: "^save/Assign_131"
  input: "^save/Assign_132"
  input: "^save/Assign_133"
  input: "^save/Assign_134"
  input: "^save/Assign_135"
  input: "^save/Assign_136"
  input: "^save/Assign_137"
  input: "^save/Assign_138"
  input: "^save/Assign_139"
  input: "^save/Assign_14"
  input: "^save/Assign_140"
  input: "^save/Assign_141"
  input: "^save/Assign_142"
  input: "^save/Assign_143"
  input: "^save/Assign_144"
  input: "^save/Assign_145"
  input: "^save/Assign_146"
  input: "^save/Assign_147"
  input: "^save/Assign_148"
  input: "^save/Assign_149"
  input: "^save/Assign_15"
  input: "^save/Assign_150"
  input: "^save/Assign_151"
  input: "^save/Assign_152"
  input: "^save/Assign_153"
  input: "^save/Assign_154"
  input: "^save/Assign_155"
  input: "^save/Assign_156"
  input: "^save/Assign_157"
  input: "^save/Assign_158"
  input: "^save/Assign_159"
  input: "^save/Assign_16"
  input: "^save/Assign_160"
  input: "^save/Assign_161"
  input: "^save/Assign_162"
  input: "^save/Assign_163"
  input: "^save/Assign_164"
  input: "^save/Assign_165"
  input: "^save/Assign_17"
  input: "^save/Assign_18"
  input: "^save/Assign_19"
  input: "^save/Assign_2"
  input: "^save/Assign_20"
  input: "^save/Assign_21"
  input: "^save/Assign_22"
  input: "^save/Assign_23"
  input: "^save/Assign_24"
  input: "^save/Assign_25"
  input: "^save/Assign_26"
  input: "^save/Assign_27"
  input: "^save/Assign_28"
  input: "^save/Assign_29"
  input: "^save/Assign_3"
  input: "^save/Assign_30"
  input: "^save/Assign_31"
  input: "^save/Assign_32"
  input: "^save/Assign_33"
  input: "^save/Assign_34"
  input: "^save/Assign_35"
  input: "^save/Assign_36"
  input: "^save/Assign_37"
  input: "^save/Assign_38"
  input: "^save/Assign_39"
  input: "^save/Assign_4"
  input: "^save/Assign_40"
  input: "^save/Assign_41"
  input: "^save/Assign_42"
  input: "^save/Assign_43"
  input: "^save/Assign_44"
  input: "^save/Assign_45"
  input: "^save/Assign_46"
  input: "^save/Assign_47"
  input: "^save/Assign_48"
  input: "^save/Assign_49"
  input: "^save/Assign_5"
  input: "^save/Assign_50"
  input: "^save/Assign_51"
  input: "^save/Assign_52"
  input: "^save/Assign_53"
  input: "^save/Assign_54"
  input: "^save/Assign_55"
  input: "^save/Assign_56"
  input: "^save/Assign_57"
  input: "^save/Assign_58"
  input: "^save/Assign_59"
  input: "^save/Assign_6"
  input: "^save/Assign_60"
  input: "^save/Assign_61"
  input: "^save/Assign_62"
  input: "^save/Assign_63"
  input: "^save/Assign_64"
  input: "^save/Assign_65"
  input: "^save/Assign_66"
  input: "^save/Assign_67"
  input: "^save/Assign_68"
  input: "^save/Assign_69"
  input: "^save/Assign_7"
  input: "^save/Assign_70"
  input: "^save/Assign_71"
  input: "^save/Assign_72"
  input: "^save/Assign_73"
  input: "^save/Assign_74"
  input: "^save/Assign_75"
  input: "^save/Assign_76"
  input: "^save/Assign_77"
  input: "^save/Assign_78"
  input: "^save/Assign_79"
  input: "^save/Assign_8"
  input: "^save/Assign_80"
  input: "^save/Assign_81"
  input: "^save/Assign_82"
  input: "^save/Assign_83"
  input: "^save/Assign_84"
  input: "^save/Assign_85"
  input: "^save/Assign_86"
  input: "^save/Assign_87"
  input: "^save/Assign_88"
  input: "^save/Assign_89"
  input: "^save/Assign_9"
  input: "^save/Assign_90"
  input: "^save/Assign_91"
  input: "^save/Assign_92"
  input: "^save/Assign_93"
  input: "^save/Assign_94"
  input: "^save/Assign_95"
  input: "^save/Assign_96"
  input: "^save/Assign_97"
  input: "^save/Assign_98"
  input: "^save/Assign_99"
}
node {
  name: "save/restore_all"
  op: "NoOp"
  input: "^save/restore_shard"
}
versions {
  producer: 26
}
